models/MNIST28x28_incoh_N50.pth (torch, 160163 bytes, 3 tensors)

fc1.weight f4 [50, 784]
000000 00 00 00 00 93 5a cb 3b 00 00 00 00 6a 19 42 3c
       0.0 0.0062058656 0.0 0.0118468795
000010 00 00 00 00 00 00 00 00 38 83 e3 3b 00 00 00 00
       0.0 0.0 0.0069431327 0.0
000020 00 00 00 00 8e ba 69 3c 00 00 00 00 25 f3 a1 3a
       0.0 0.0142656695 0.0 0.0012355788
000030 db 6b 8f 3c 53 21 0a 3d da 04 fe 3c f7 33 fa 3a
       0.017507484 0.033723187 0.031008173 0.0019088973
000040 00 00 00 00 c5 10 08 3d 4a 59 d9 3a dc 6f 03 3b
       0.0 0.033219118 0.0016582396 0.0020055687
000050 3c b4 96 3c f4 f4 07 3d dc a9 be 3c 6a 7e 7a 3c
       0.01839649 0.03319259 0.023274355 0.0152889285
000060 13 70 94 3b 7c e0 36 3c 00 00 00 00 c5 85 10 3c
       0.004529962 0.01116192 0.0 0.008820956
000070 00 00 00 00 ac 52 82 3c c1 41 ee 3b 20 32 9d 3c
       0.0 0.015908562 0.007271022 0.01918894
000080 ab c4 66 36 1a a4 d2 3c 70 80 96 3c 66 1c ff 3c
       3.4387147e-06 0.025713015 0.01837179 0.031141471
000090 8f 04 0c 3d f5 1e 71 3d 09 8f 0f 3d 32 f3 0f 39
       0.034184035 0.058867414 0.03504852 0.0001372814
0000a0 fe 72 83 39 7c 5d d7 38 97 3d 23 35 61 5d 12 3e
       0.00025071943 0.00010269412 6.0811857e-07 0.14293434
0000b0 12 fa 90 3e 6a 28 16 3e 0d 8f db 3c b4 85 ff 3c
       0.28315789 0.14663854 0.02680161 0.031191684
0000c0 b6 4f 8c 3d c4 10 95 3e f5 ce f0 3e fe 72 54 3e
       0.06851141 0.29114354 0.47032896 0.20746991
0000d0 21 2a c7 3c 00 00 00 00 00 00 00 00 00 00 00 00
       0.02431208 0.0 0.0 0.0
0000e0 00 00 00 00 6e 42 d8 3c 5c e1 31 3c 36 27 8f 34
       0.0 0.026398864 0.0108569525 2.6664355e-07
0000f0 3e a2 54 34 dc 64 b7 3c 6a 59 1a 3d 32 bf d7 39
       1.9803062e-07 0.02238696 0.03768293 0.00041150447
000100 18 78 7c 3e 9c 7b a5 3e 85 d3 a6 3e 68 3d 81 3b
       0.24655187 0.3232087 0.32583252 0.003944088
000110 35 56 73 39 02 11 cd 38 48 90 ed 3b be 68 1c 37
       0.000232064 9.77833e-05 0.0072498657 9.322712e-06
000120 85 79 67 38 e0 20 73 34 06 ab 03 37 fe 79 ae 39
       5.5187866e-05 2.2643098e-07 7.848028e-06 0.00033278757
000130 10 67 c2 38 77 a9 d0 38 e3 d7 d5 3d db 77 fa 38
       9.269838e-05 9.949778e-05 0.10441568 0.00011943254
000140 00 00 00 00 00 00 00 00 ee 43 25 3c ba 76 f6 3c
       0.0 0.0 0.0100869965 0.03008591
000150 c5 35 6f 3c 00 00 00 00 37 75 38 36 b6 d1 4d 35
       0.014600222 0.0 2.7486365e-06 7.667362e-07
000160 df fc 45 3d ba 4f b4 3d 1f fb 3e 3e 2f fa 9f 3e
       0.04833686 0.08804269 0.18650483 0.31245562
000170 a2 78 42 39 23 88 38 3f f7 62 35 3f d3 76 5c 3f
       0.00018546221 0.7208273 0.70854133 0.8611881
000180 af 53 1a 3f 5d 8c eb 38 ea 79 0f 39 65 c2 d3 39
       0.6028394 0.00011231818 0.00013682959 0.0004038989
000190 65 c2 56 39 41 46 04 36 fd 12 13 38 3d d4 30 38
       0.00020481048 1.9710426e-06 3.5065215e-05 4.2159332e-05
0001a0 0e b6 14 3f d4 5a b4 3e 08 ce 53 38 fe 02 80 37
       0.58090293 0.35225546 5.04982e-05 1.5260182e-05
0001b0 b0 82 b9 37 00 00 00 00 9a 22 2a 3d b8 e1 6c 3c
       2.2114575e-05 0.0 0.041536905 0.014458112
0001c0 00 00 00 00 b4 17 a7 36 5d 5b 04 38 02 02 d9 30
       0.0 4.9797472e-06 3.155634e-05 1.5789399e-09
0001d0 fb 8d 02 3f a7 7a 26 3f b6 bf 8b 3f 0d 7a 16 3f
       0.50997895 0.650309 1.091788 0.58779985
0001e0 89 35 46 3f 0e a7 a3 3f aa 89 bf 3f f6 e9 8e 3f
       0.7742544 1.2785356 1.4963887 1.1165149
0001f0 b4 96 60 3f 5c dc b4 3e 4f 24 bd 3e 31 ed d5 3d
       0.87729955 0.3532437 0.36941764 0.10445631
000200 b1 d6 40 34 15 90 f0 37 19 0e 11 38 1f 0c 44 39
       1.7959498e-07 2.8677323e-05 3.4583823e-05 0.00018696532
000210 7f 80 95 3e 00 00 00 00 08 8b 81 38 9a 94 1a 39
       0.29199597 0.0 6.177096e-05 0.00014741943
000220 4a a1 b9 37 a9 79 24 38 57 60 25 3a fb 2b a6 3d
       2.2128825e-05 3.9213952e-05 0.0006308606 0.08113857
000230 97 ac 2b 3c 00 00 00 00 9b 20 3b 3b fb a3 72 37
       0.01047816 0.0 0.002855337 1.4462504e-05
000240 ab df 05 40 97 a7 00 40 7e a0 15 40 b8 34 3c 3a
       2.0917766 2.0102289 2.3379207 0.00071794866
000250 11 af 69 3f e2 a0 67 3f a3 b6 bf 3f d3 f1 1b 40
       0.91282755 0.9047986 1.4977611 2.4366348
000260 f2 5d 58 40 87 9e 65 40 cd 47 92 40 e2 ee 83 40
       3.380734 3.5878007 4.5712647 4.1229105
000270 3f 99 71 40 85 b3 e1 3f ca 9a 86 3f 7d f6 f7 3f
       3.7749784 1.763291 1.0515988 1.9372097
000280 21 b4 33 40 0a 0c 6c 3f cf 60 08 3f 06 e9 d4 3f
       2.8078692 0.9220587 0.5327272 1.6633613
000290 5f 95 7d 3f 49 68 84 3e 84 86 bd 3b 00 00 00 00
       0.9905605 0.25860813 0.005783858 0.0
0002a0 61 86 f2 3c c5 b2 15 3c fd 0e 86 39 e7 d4 2a 39
       0.029605092 0.00913686 0.0002556964 0.00016291776
0002b0 c9 39 9f 3a 5c 27 3b 3e 44 73 90 3a 21 ad df 39
       0.0012147959 0.18276733 0.001102068 0.00042662866
0002c0 cd 28 90 39 ff b8 fe 39 21 5e d7 3a b0 61 43 3b
       0.0002749622 0.00048584488 0.0016431251 0.0029812865
0002d0 fd 5c 0a 3a 00 00 00 00 00 00 00 00 00 00 00 00
       0.00052781386 0.0 0.0 0.0
0002e0 00 00 00 00 00 00 00 00 22 51 ac 3a 82 bf bb 3b
       0.0 0.0 0.0013146738 0.0057296166
0002f0 fb c8 a7 3b 7f 56 be 3d b6 b8 de 3e 17 68 fa 3e
       0.0051203943 0.092938416 0.43500298 0.4890754
000300 c4 7e 85 3b e1 78 d7 3c b8 c4 d8 3e d0 e0 ec 38
       0.0040739495 0.026302757 0.42337584 0.000112952315
000310 00 00 00 00 31 19 b7 36 a5 34 b1 38 00 00 00 00
       0.0 5.4567577e-06 8.4498235e-05 0.0
000320 a9 a5 a4 3b a7 4c 7c 3b b5 83 35 3a 00 00 00 00
       0.005024631 0.0038497837 0.0006924228 0.0
000330 00 00 00 00 00 00 00 00 f2 9f 25 39 00 00 00 00
       0.0 0.0 0.0001579521 0.0
000340 00 00 00 00 00 00 00 00 00 00 00 00 00 00 00 00
       0.0 0.0 0.0 0.0
000350 00 00 00 00 00 00 00 00 00 00 00 00 e1 92 61 3a
       0.0 0.0 0.0 0.00086049555
000360 83 2b 11 3a 00 00 00 00 ca 31 df 39 cb bf 16 3b
       0.0005537795 0.0 0.0004257097 0.00230025
000370 3b 4f 68 3b ca e7 e4 3a 0e db 1a 3e 00 00 00 00
       0.0035447616 0.0017464098 0.15122625 0.0
000380 21 c0 bb 3e 00 00 00 00 00 00 00 00 00 00 00 00
       0.3667002 0.0 0.0 0.0
000390 f8 89 44 3a 6e 25 60 3b 00 00 00 00 00 00 00 00
       0.00074973656 0.0034201997 0.0 0.0
0003a0 00 00 00 00 00 00 00 00 00 00 00 00 00 00 00 00
       0.0 0.0 0.0 0.0
0003b0 00 00 00 00 00 00 00 00 00 00 00 00 00 00 00 00
       0.0 0.0 0.0 0.0
0003c0 00 00 00 00 00 00 00 00 00 00 00 00 00 00 00 00
       0.0 0.0 0.0 0.0
0003d0 00 00 00 00 00 00 00 00 00 00 00 00 7f 9e ad 37
       0.0 0.0 0.0 2.0697013e-05
0003e0 00 00 00 00 85 dd de 3a c9 46 22 3b 7e 46 47 39
       0.0 0.0017003274 0.002476143 0.0001900438
0003f0 00 00 00 00 00 00 00 00 c9 85 07 39 00 00 00 00
       0.0 0.0 0.00012924442 0.0

fc2.weight f4 [10, 50]
000000 66 3a 19 bd c5 5b 9a 3f a2 f9 c6 3f a7 82 d5 3e
       -0.03740921 1.2059256 1.5544932 0.41701242
000010 bb e1 b9 3e d4 f4 8f 3f 10 9c b3 3f 0c ff 4e 3f
       0.3630503 1.1246591 1.4032001 0.8085792
000020 71 66 82 bf a6 42 ae 3e 2c 4f e4 3f 79 a7 0b bf
       -1.0187513 0.34035224 1.7836661 -0.5455242
000030 84 06 b2 bf 2a 30 5b 3f 65 9a dd bc 90 b8 74 bd
       -1.3908238 0.8562037 -0.02705116 -0.059746325
000040 01 e5 35 3f 13 22 1f 3f 8f a7 7c 3f 77 c1 9f 3f
       0.7105256 0.6216137 0.98693174 1.2480916
000050 ed 56 cf be 85 a9 48 bf 92 65 9f 3f a8 ad b7 3f
       -0.40496007 -0.78383666 1.2452872 1.4349871
000060 47 3e a6 3f 87 f2 35 3f ba 01 37 3f 60 b7 42 be
       1.2987756 0.7107319 0.7148701 -0.19015265
000070 47 b4 f9 bf 28 08 d1 bf ea 5c 05 3f 3a 29 5c bf
       -1.9508141 -1.6330614 0.520949 -0.86000407
000080 b5 c5 c0 bf d5 c9 32 bf ae 80 03 be 67 ec 51 3f
       -1.5060335 -0.6983922 -0.12842056 0.82001346
000090 40 95 ef 3e 58 26 75 3f d7 f3 13 3f 1a a1 95 bf
       0.46793556 0.9576163 0.57793945 -1.1689789
0000a0 d9 b5 47 bf 7f 4f f6 be bb 90 45 bf ab b9 ea 3f
       -0.7801185 -0.48107526 -0.77173966 1.8337911
0000b0 16 59 29 bf 70 93 3d 3e 90 c5 a1 3f 71 ed d6 3e
       -0.6615156 0.18513274 1.2638416 0.41978028
0000c0 3b 8a 9f 3f 40 82 d3 3e ea 8d e7 3f 50 0d c1 be
       1.246406 0.4131031 1.8090184 -0.3770547
0000d0 7a 12 92 bf 3d f6 39 bf 3c 63 bc bd 28 7b 92 bf
       -1.1411889 -0.72641355 -0.09198615 -1.1443834
0000e0 75 66 7e be 17 7e 15 bf 03 85 ca bf cc 8d 84 bf
       -0.24843772 -0.5839552 -1.5821842 -1.0355773
0000f0 63 1d 56 bf 40 32 33 3d 74 b6 7c 3f a7 e7 8f be
       -0.8363859 0.043749094 0.987159 -0.28106424
000100 f9 ff e4 bd fd de c9 bf ef e1 12 bf df a9 e5 be
       -0.111816354 -1.5771176 -0.57376 -0.44856164
000110 b2 d9 af be 25 ef 35 be 86 29 1b 3f 35 3a 1a bf
       -0.34345776 -0.17767008 0.60610235 -0.60245067
000120 26 6c b1 bd 70 68 a2 be 4a 1b e9 bd 19 7b 0b bf
       -0.08663206 -0.31720304 -0.11382158 -0.5448471
000130 90 be 63 bf 58 ee 40 3f fd 1e 78 3e 7c 8e 67 3e
       -0.8896265 0.75363684 0.24230571 0.22612947
000140 fb cd 74 bf 33 31 64 3f 6f 55 b9 3f d4 c6 20 3f
       -0.956268 0.8913757 1.4479197 0.6280339
000150 e7 db 62 bf a3 87 02 bd ff ec d0 bf 74 39 8e be
       -0.88616794 -0.031867635 -1.6322325 -0.27778208
000160 9b a8 ad bf 73 bd 84 3f 05 01 7c bf ab 86 ba be
       -1.3567079 1.0370315 -0.98439056 -0.36430869
000170 ce 82 94 3f 68 92 26 be f6 92 9d bf 3e 79 69 3f
       1.1602418 -0.16266787 -1.2310474 0.91200626
000180 4b 40 81 bf 88 4d 40 bf 21 7a 8b bd 6c 3b a2 be
       -1.0097746 -0.75118303 -0.068104036 -0.3168596
000190 27 25 a6 bd cf 11 6c 3f 43 07 a3 bf 50 80 49 3f
       -0.08112555 0.92214674 -1.2736591 0.78711414
0001a0 c4 35 d1 be 56 72 fd 3d 89 1b 05 3f 93 1c a8 bf
       -0.40861332 0.123753235 0.5199514 -1.313372
0001b0 21 1a 5b bf ee 9d 51 bf 6a d2 11 be 7d df a2 be
       -0.85586745 -0.81881607 -0.14240423 -0.31811133
0001c0 fe ed f5 3e b2 93 7e 3e d0 ab 08 3f a6 74 c5 bf
       0.48033136 0.24861029 0.53387165 -1.5426223
0001d0 c8 af f4 bf 14 55 3e 3f ad fe 2a bf d2 22 c4 bf
       -1.9116144 0.7434857 -0.66794854 -1.5323126
0001e0 58 f0 98 3c 6b 84 e1 bf 6d 0a 04 3f 96 62 f6 3e
       0.018669292 -1.7618536 0.5157841 0.4812209
0001f0 af e6 29 3f 58 30 c8 3f 62 74 09 bf ae 91 c1 3d
       0.6636762 1.5639753 -0.5369321 0.09451614
000200 89 11 45 bf 2d 0b e0 3d 92 17 3f bf d5 13 7d bf
       -0.7697988 0.109396316 -0.7464534 -0.98858386
000210 54 80 d0 3e fc 1e 83 3c 82 b1 71 3f 0c 4d ef bd
       0.40722907 0.016005985 0.9441148 -0.116846174
000220 6c 4b 8a 3f 73 f9 8a 3e 82 28 8b 3f 6c be 17 40
       1.0804267 0.2714344 1.0871737 2.3709974
000230 0c ea 89 3f 02 16 11 3f 79 3f c4 be 14 a9 78 3f
       1.077455 0.56674206 -0.38329676 0.9713299
000240 28 d8 7f 3e 93 87 3e be 2a a9 f7 3d d4 6c 95 bf
       0.24984801 -0.18606405 0.12092812 -1.1673837
000250 1d b3 78 3f a8 f5 a0 bd 8a 0f 6e bf 8c 4f 9f bf
       0.97148305 -0.07859355 -0.9299246 -1.2446151
000260 3b f2 b6 bc 65 f5 d8 bc 44 78 a3 be 3a b2 5c bf
       -0.022332301 -0.0264842 -0.31927693 -0.8620945
000270 0c 11 03 bf a3 15 35 bf 76 f6 15 3f 04 d6 76 bf
       -0.51197886 -0.7073614 0.58579195 -0.9642031
000280 d3 62 4d 3f 13 df 8e 3e 03 f3 35 bf 76 08 8d bf
       0.8022892 0.27904567 -0.7107393 -1.1018207
000290 c7 86 b6 3e de 55 1f 3f 2c 7e ad bf 7d 3d 59 3f
       0.35649702 0.622404 -1.355413 0.8485945
0002a0 0e 00 38 3f ab 63 1f bf 59 6e 81 bf b4 16 8a be
       0.71875083 -0.62261456 -1.01118 -0.26970446
0002b0 76 9b 1b 3f 7c 01 ff 3e 00 36 99 bf d3 c5 53 3f
       0.6078409 0.4980582 -1.1969604 0.8272373
0002c0 21 66 b3 bd c8 17 2f 3f 03 63 c8 3e 8d 79 13 3f
       -0.08759714 0.6839566 0.3913804 0.57607347
0002d0 49 a2 2a be a2 28 2b 3f ee ee d6 3d e6 dd 84 3d
       -0.1666347 0.66858876 0.10494791 0.06487636
0002e0 cf d3 a6 3f 15 d0 91 3f f7 11 3a 3f 34 59 28 bf
       1.3033389 1.1391627 0.7268366 -0.65761113
0002f0 11 4b 68 3f 8f f0 72 be a6 9e 9a 3f 47 b2 da bd
       0.9073954 -0.23724578 1.2079666 -0.10678535
000300 0c 94 e6 3e d3 87 5b be d6 49 17 be 74 24 55 3e
       0.45034826 -0.21438532 -0.1477426 0.20814687
000310 b6 e3 cc 3e f7 68 93 bf 14 38 a8 bf fd 03 3b 3f
       0.4001748 -1.1516408 -1.3142114 0.7305296
000320 e3 25 2e 3f 3b d5 d8 be 1f 67 2d 3f 18 43 8f 3e
       0.6802656 -0.42350182 0.67735475 0.27980876
000330 25 7f 13 3f 15 9d 25 3f 08 6f 83 3f c5 cc 8d 3f
       0.5761588 0.64692813 1.0268259 1.1078116
000340 92 b7 da 3f 35 d2 04 bf 74 f3 d3 bf 1e d9 a0 3d
       1.7087271 -0.5188325 -1.6558671 0.07853912
000350 80 d4 3c 3f 49 c7 ca 3c 6c f6 80 be 09 53 a1 bd
       0.7376175 0.02475323 -0.25188005 -0.07877166
000360 02 f4 eb 3f c4 24 b7 bf b8 dd ca bf fe 58 94 3f
       1.843384 -1.4308095 -1.5848913 1.1589658
000370 d4 0f ff bc 1e 5a 4b 3f d4 9e b8 3f 18 5d a2 3e
       -0.031135477 0.7943438 1.442347 0.3171165
000380 81 fd 66 bf c6 6a c0 bf c3 82 1d 3f 13 46 80 be
       -0.90230566 -1.5032585 0.6152765 -0.25053462
000390 22 66 1e 3f ce 55 bd 3e 09 c9 39 3f ec d0 7c be
       0.6187459 0.36979526 0.7257238 -0.24689072
0003a0 c1 6c 48 3e 95 46 b7 3e 19 c8 bd bf 9a e1 b8 bf
       0.19572736 0.35796037 -1.482669 -1.4443848
0003b0 66 a1 fb bf 59 c6 e3 be ee 7a 94 bf c2 a8 28 3e
       -1.965863 -0.44487265 -1.1600015 0.16470626
0003c0 14 7f c4 be a0 79 d0 bb 6e e7 05 bf 66 9a f2 3e
       -0.38378203 -0.006362155 -0.5230626 0.47383422
0003d0 48 f5 ac 3f 8f 7d 1a bf 43 16 4d bf c0 de f3 3e
       1.3512354 -0.6034784 -0.80112094 0.47630882
0003e0 48 c0 83 bf ad 4f 10 c0 00 67 9e bf af 79 92 bf
       -1.0293055 -2.254863 -1.2375183 -1.1443385
0003f0 a0 60 d0 3e 69 0a 8f be f0 27 b8 be 02 9b d7 be
       0.4069872 -0.2793763 -0.3596797 -0.4211045

fc2.bias f4 [10]
000000 70 8d 3d c1 9b 4f 19 41 1e d1 27 3e 4f ed a9 3f
       -11.847031 9.581935 0.16388366 1.3275546
000010 e3 a5 2f 40 b6 12 b4 40 4a 94 6a c0 49 f0 bd 40
       2.7445 5.627284 -3.6653008 5.9355817
000020 0a f2 d8 c0 90 5a 44 c0
       -6.779546 -3.0680275
