models/MNIST28x28_incoh_N200.pth (torch, 636515 bytes, 3 tensors)

fc1.weight f4 [200, 784]
0.0 0.0 0.0346168 0.010788228 0.0 0.015087528 0.035578337 0.0213152
0.0 0.013135553 0.012042676 0.024132598 0.024357375 0.0079662595 0.02368032 0.004361943
0.024645215 0.01944367 0.0056676017 0.0 0.0 0.0 0.008326237 0.014579059
0.0 0.0 0.0036935594 0.022054423 0.0 0.0 0.0 0.00057564466
0.0011102506 0.011970799 0.024958003 0.015039609 1.0900799e-10 4.113403e-13 1.8075686e-12 0.0
3.1937296e-05 1.7341451e-08 3.7677855e-06 7.541376e-05 0.0 0.0 2.0662694e-07 0.0082328655
0.025126 0.0090448 0.011582933 0.000384982 0.018951872 0.0 0.0023443955 0.0
0.024512889 0.0035062945 8.59068e-05 0.004311747 0.015689095 2.7006566e-10 7.865822e-09 9.365678e-08
2.7652595e-06 4.327572e-06 1.3052414e-05 4.7638106e-05 0.0 0.0 0.0 0.0
0.0 0.0 3.5587596e-05 0.32905614 0.22630909 0.08710492 0.21053925 3.503952e-05
6.012897e-05 3.561861e-05 0.0 0.0 0.0048513585 0.0 0.0 0.0
0.067560494 0.07780221 0.0 0.0 2.4781002e-06 0.0 3.0827876e-05 0.00023218934
0.0007609976 0.0013125851 4.2314565e-05 0.0 0.0 0.0002465678 0.0013892811 0.00056501385
0.3708966 1.6883974 0.052239865 6.0264785e-05 5.1639938e-05 1.0236093e-05 0.08232544 0.016116118
0.01707992 0.002301598 4.857e-10 1.2403231e-06 0.25656644 3.2213927e-07 0.0 6.705667e-05
0.0 0.00037977446 0.00061797095 0.001079239 0.0016307244 0.0012913246 0.0 0.0
0.0 0.0 0.0 5.590435e-05 0.00028924044 5.409942e-05 0.000527555 0.28536153
0.00072541693 0.00051301636 0.09379663 0.048815787 0.0043094843 0.022397984 0.0 0.059030525
0.18105021 2.6413187e-05 0.0004809134 0.0004974151 0.0005927754 0.00038121495 0.0004611751 0.0023113287
0.0017927156 0.0021737514 0.0 0.0 0.0 0.0 0.00026482285 0.00060194207
0.0015111027 0.0008331706 0.0006938522 1.5615613 0.123983085 0.00021295583 0.14006831 0.08047217
0.0 0.025182258 0.069772206 4.2364492e-05 8.405251e-05 0.8659117 0.0010153143 0.0014691913
0.0019305028 0.001399505 0.0 0.0 0.0006995442 0.0 0.0 0.0
0.0 0.0 1.6724463e-05 0.0006776946 0.00026295715 0.0010274551 0.00042824127 2.6467966e-05
0.6381329 0.28826147 0.10845101 0.023744578 8.359972e-07 0.018212317 1.2312701e-06 1.1988753e-05
0.7451368 1.7282693 0.0010842195 0.001376992 0.0009076245 0.00045273334 0.0 0.0
0.0 0.0 0.0 0.0 0.0018256576 0.0010123774 0.00036353848 0.0007465508
0.00085664395 0.00090116914 3.2218006e-05 0.0 6.7955684e-06 2.9850335e-06 0.19006376 0.049112756
0.0011806574 0.005336179 6.116964e-05 0.15522586 1.2091894 0.6190443 0.00052382884 0.00043706674
0.0 8.534864e-05 0.00044680486 0.0 0.0 0.0 0.0 0.0
0.0017360303 0.0012801536 0.0004938157 0.0012512215 0.00071330235 2.5133033 1.2665075e-05 0.0
3.644989e-06 0.0 0.12951209 0.057053905 1.3434126e-07 2.6759724e-07 2.4400638e-08 2.22988e-05
00000000: 0000 0000 0000 0000 58ca 0d3d 1cc1 303c
00000010: 0000 0000 ae31 773c 97ba 113d 379d ae3c
00000020: 0000 0000 8136 573c a54e 453c bab1 c53c
00000030: 1e89 c73c ea84 023c 3bfd c13c a1ee 8e3b
00000040: c3e4 c93c 5548 9f3c 4ab7 b93b 0000 0000
00000050: 0000 0000 0000 0000 c56a 083c 01dd 6e3c
00000060: 0000 0000 0000 0000 a50f 723b 7aab b43c
00000070: 0000 0000 0000 0000 0000 0000 dce6 163a
00000080: d485 913a 2c21 443c ba74 cc3c b168 763c
00000090: 0bb6 ef2e 6290 e72a 8664 fe2b 0000 0000
000000a0: 69f4 0538 41f6 9432 10da 7c36 7427 9e38
000000b0: 0000 0000 0000 0000 2edd 5d34 24e3 063c
000000c0: 0bd5 cd3c a430 143c 58c6 3d3c 69d7 c939
000000d0: f540 9b3c 0000 0000 6ea4 193b 0000 0000
000000e0: 41cf c83c dcc9 653b dd28 b438 8e49 8d3b
000000f0: 6b86 803c 5d78 942f 4022 0732 5c20 c933
00000100: cc92 3936 8f35 9136 b1fb 5a37 07cf 4738
00000110: 0000 0000 0000 0000 0000 0000 0000 0000
00000120: 0000 0000 0000 0000 e443 1538 0c7a a83e
00000130: 92bd 673e 1064 b23d 9a97 573e 66f7 1238
00000140: fd32 7c38 3165 1538 0000 0000 0000 0000
00000150: 25f8 9e3b 0000 0000 0000 0000 0000 0000
00000160: 285d 8a3d c456 9f3d 0000 0000 0000 0000
00000170: 704d 2636 0000 0000 2e4d 0138 da77 7339
00000180: af7d 473a 0c0b ac3a eb7a 3138 0000 0000
00000190: 0000 0000 c545 8139 8a18 b63a 701d 143a
000001a0: 29e6 bd3e 681d d83f 78f9 553d d2c4 7c38
000001b0: f697 5838 afbb 2b37 3e9a a83d f305 843c
000001c0: 30eb 8b3c 68d6 163b 1982 0530 2d79 a635
000001d0: ad5c 833e 7cf2 ac34 0000 0000 c7a0 8c38
000001e0: 0000 0000 771c c739 54ff 213a 4075 8d3a
000001f0: 08be d53a aa41 a93a 0000 0000 0000 0000
00000200: 0000 0000 0000 0000 0000 0000 d77a 6a38
00000210: 32a5 9739 cfe8 6238 9e4b 0a3a e81a 923e
00000220: e829 3e3a f27b 063a 7318 c03d 10f3 473d
00000230: 9336 8d3b fa7b b73c 0000 0000 fec9 713d
00000240: 3a65 393e e391 dd37 1b23 fc39 f664 023a
00000250: 7c64 1b3a cedd c739 e0c9 f139 a979 173b
00000260: 8ef9 ea3a 7f75 0e3b 0000 0000 0000 0000
00000270: 0000 0000 0000 0000 ecd7 8a39 a6cb 1d3a
00000280: 3110 c63a 2269 5a3a a2e3 353a 3ee1 c73f
00000290: d8ea fd3d e54c 5f39 116e 0f3e 98ce a43d
000002a0: 0000 0000 064b ce3c bbe4 8e3d 87b0 3138
000002b0: 5945 b038 64ac 5d3f 4b14 853a e191 c03a
000002c0: ed08 fd3a 986f b73a 0000 0000 0000 0000
000002d0: 9e61 373a 0000 0000 0000 0000 0000 0000
000002e0: 0000 0000 0000 0000 834b 8c37 51a7 313a
000002f0: 83dd 8939 acab 863a 9285 e039 8607 de37
00000300: ae5c 233f 0297 933e 901b de3d fd83 c23c
00000310: 4a69 6035 ff31 953c 1e42 a535 4d23 4937
00000320: 49c1 3e3f ee37 dd3f 5f1c 8e3a 2f7c b43a
00000330: a6ed 6d3a d75c ed39 0000 0000 0000 0000
00000340: 0000 0000 0000 0000 0000 0000 0000 0000
00000350: e74a ef3a c0b1 843a 4f99 be39 2db4 433a
00000360: 6790 603a 703c 6c3a d221 0738 0000 0000
00000370: 7d05 e436 7c52 4836 13a0 423e 752a 493d
00000380: 4ac0 9a3a 1ddb ae3b 3348 8038 87f3 1e3e
00000390: b8c6 9a3f b079 1e3f 8f51 093a 1b26 e539
000003a0: 0000 0000 34fd b238 2241 ea39 0000 0000
000003b0: 0000 0000 0000 0000 0000 0000 0000 0000
000003c0: 838b e33a d4ca a73a 6973 013a 0700 a43a
000003d0: e9fc 3a3a f6d9 2040 157c 5437 0000 0000
000003e0: 6f9c 7436 0000 0000 d19e 043e 5bb1 693d
000003f0: 723f 1034 49aa 8f34 9299 d132 4f0e bb37

fc2.weight f4 [10, 200]
0.009998115 -0.52280414 0.24697691 0.7210744 1.0547237 0.54836863 -0.24907397 0.77840906
0.5016179 0.09163314 -0.93413895 0.7577386 0.51423436 0.3901892 -1.6705747 0.37034357
0.30792254 0.3742754 -0.037433352 -0.057221048 -0.87387544 1.1203338 -0.7901132 0.1395815
0.62632275 -0.25777432 -0.9614643 -0.65446746 0.21188477 0.026223028 0.45421916 0.52963024
0.42258304 -0.61366934 0.3915212 0.58758307 0.2316574 0.51718014 0.32344466 -0.0118028065
-0.060261983 -0.13844447 0.8392188 0.40819865 0.46588346 0.22733997 0.3901773 0.50693136
-1.0582954 0.056548476 -0.07868146 -0.9985313 0.061302356 0.54265964 0.5771776 0.13680652
-0.7239396 0.063537374 -0.17813748 -1.0689394 0.46800485 0.21866001 0.40595087 0.499852
0.08037688 0.4880742 1.9834679 -0.9617467 -0.21807323 -0.40339407 0.82111734 -0.032161105
-0.7188589 -0.030583188 0.05073434 1.0491815 0.15977514 0.22506821 -1.3359115 -1.062444
0.22319147 1.4983754 0.21255898 0.5339387 0.27501658 0.27230698 -1.0108888 0.21782024
0.09201386 -0.39779645 -0.03624842 0.5930554 -1.2147969 -0.04519001 0.43451864 0.16735077
0.15331478 -0.30550128 0.5294394 0.22568059 0.14008912 -1.181637 -0.7680763 -0.27131006
0.9183323 1.2143604 -0.73605597 -0.6519213 -0.22264953 -1.2623357 0.19132149 -0.6592663
-0.4488882 -0.44332916 0.37608585 0.21588585 -0.658176 0.47122887 0.55459654 0.35764447
-0.6044644 0.45669612 -1.4080172 -0.32019457 1.1695024 0.27630055 0.28522262 -0.6460335
0.4589116 -0.35107252 0.39301163 0.37317103 -0.09011214 0.11122267 0.5853189 -0.5940927
-0.16541697 1.4484555 -0.030622143 0.72259384 -0.16740954 0.3610102 0.7331324 0.4309952
0.41751614 0.8412507 -1.1127925 0.12963507 0.28773502 0.7129137 -1.8808134 -0.2226393
0.15225625 0.11706937 -0.9310931 -0.24568929 0.5168139 -0.41897067 0.2751868 0.08396321
0.737377 -0.8108744 -0.2205212 -0.26780927 0.66452307 -0.7035648 0.80745775 0.018420123
0.6958322 0.3114814 0.055451076 -1.6747371 -0.07823413 0.23707353 0.92797494 -1.0067084
-0.22946715 0.5592365 0.8129129 0.3949818 0.78093314 -0.06634474 0.6068368 0.8937378
0.9334617 0.41355437 0.06915176 -0.93124485 0.3772334 0.38511264 -0.42781785 0.414198
-0.64970124 0.31481087 0.16223094 -0.8252329 -0.73591024 -0.3972274 0.6639263 0.21830563
-0.7741432 0.78868467 -0.34357107 -0.2452956 0.08826424 0.17311856 -0.42211035 -0.36848307
-0.06283894 -0.3999867 -1.290431 -0.48007324 -0.24408832 -0.033506926 0.64206433 0.10867463
0.032634106 0.026378883 0.34694344 -1.1890713 0.882202 0.2536839 0.4526539 0.40844828
-0.58411413 0.1889529 0.2877142 0.4319475 0.26234853 0.1551991 -0.23915367 -0.09681108
0.034109276 0.5114597 -0.48380136 0.48206025 -1.4510962 0.11107402 0.13880587 -0.23707342
0.17076755 -0.220445 0.12828115 0.31643215 -0.010411836 0.30682603 -0.11135149 -0.6502057
0.71190304 0.5612407 0.084269464 0.84514636 -0.18396872 0.13245149 -0.44015396 0.009472214
00000000: 22cf 233c 7ed6 05bf 84e7 7c3e 5598 383f
00000010: 3001 873f e361 0c3f 3f0d 7fbe d145 473f
00000020: 086a 003f 28aa bb3d bb23 6fbf 28fb 413f
00000030: dda4 033f e1c6 c73e 64d5 d5bf ac9d bd3e
00000040: 06a8 9d3e 06a1 bf3e b753 19bd 9e60 6abd
00000050: 4db6 5fbf 1967 8f3f dc44 4abf 74ee 0e3e
00000060: b056 203f fffa 83be 8622 76bf 2e8b 27bf
00000070: 52f8 583e add1 d63c 6a8f e83e d995 073f
00000080: ce5c d83e 6f19 1dbf 7775 c83e d86b 163f
00000090: 9937 6d3e eb65 043f 8a9a a53e 8f60 41bc
000000a0: 45d5 76bd 63c4 0dbe 0bd7 563f 6aff d03e
000000b0: 4788 ee3e cfcb 683e 52c5 c73e 41c6 013f
000000c0: 3976 87bf 609f 673d bf23 a1bd bf9f 7fbf
000000d0: 2e18 7b3d beeb 0a3f e9c1 133f 0217 0c3e
000000e0: 1b54 39bf e21f 823d ac69 36be 02d3 88bf
000000f0: 559e ef3e 69e8 5f3e cbd8 cf3e 9aec ff3e
00000100: a29c a43d dde4 f93e 47e2 fd3f 0835 76bf
00000110: 974e 5fbe ab89 cebe bf34 523f 5dbb 03bd
00000120: 2307 38bf 9889 fabc d0ce 4f3d 944b 863f
00000130: 189c 233e 4878 663e 26ff aabf 2afe 87bf
00000140: 4e8c 643e c4ca bf3f 10a9 593e 35b0 083f
00000150: f9ce 8c3e d26b 8b3e ce64 81bf 450c 5f3e
00000160: c371 bc3d faab cbbe 3979 14bd 7bd2 173f
00000170: 777e 9bbf 2919 39bd 3a79 de3e 005e 2b3e
00000180: 8dfe 1c3e aa6a 9cbe 5789 073f d018 673e
00000190: 8673 0f3e e23f 97bf a6a0 44bf 27e9 8abe
000001a0: d317 6b3f 2970 9b3f 2a6e 3cbf 50e4 26bf
000001b0: 3dfe 63be 3794 a1bf c8e9 433e adc5 28bf
000001c0: add4 e5be 0afc e2be 538e c03e 2e11 5d3e
000001d0: 397e 28bf e944 f13e 0afa 0d3f 2d1d b73e
000001e0: 2ebe 1abf 13d4 e93e e839 b4bf 8bf0 a3be
000001f0: 41b2 953f 4477 8d3e b308 923e 7462 25bf
00000200: 76f6 ea3e c7bf b3be d238 c93e 4610 bf3e
00000210: b78c b8bd b6c8 e33d 76d7 153f 7616 18bf
00000220: 1163 29be fd66 b93f 4adb fabc e9fb 383f
00000230: 686d 2bbe 54d6 b83e 91ae 3b3f 67ab dc3e
00000240: adc4 d53e 355c 573f fc6f 8ebf 0ebf 043e
00000250: 0152 933e 8381 363f 7ebe f0bf 8ffb 63be
00000260: 10e9 1b3e 11c2 ef3d 1e5c 6ebf f995 7bbe
00000270: ea4d 043f 5383 d6be 49e5 8c3e e7f4 ab3d
00000280: bdc4 3c3f 7795 4fbf 4fd0 61be 4c1e 89be
00000290: 2f1e 2a3f d31c 34bf 8db5 4e3f cce5 963c
000002a0: 0f22 323f 7d7a 9f3e ab20 633d c95d d6bf
000002b0: 3739 a0bd 67c3 723e c48f 6d3f d2db 80bf
000002c0: 70f9 6abe 202a 0f3f 0f1b 503f 0e3b ca3e
000002d0: 3ceb 473f c0df 87bd a859 1b3f 00cc 643f
000002e0: 59f7 6e3f 66bd d33e 709f 8d3d 1066 6ebf
000002f0: bc24 c13e 7c2d c53e f10a dbbe c311 d43e
00000300: d252 26bf e42e a13e de1f 263e 7742 53bf
00000310: 9d64 3cbf 6461 cbbe 13f7 293f 838b 5f3e
00000320: 402e 46bf 3de7 493f 8ce8 afbe c52e 7bbe
00000330: e2c3 b43d fe45 313e d91e d8be d0a9 bcbe
00000340: b4b1 80bd 0fcb ccbe d82c a5bf 29cc f5be
00000350: 4af2 79be 8f3e 09bd 545e 243f ce90 de3d
00000360: 57ab 053d 8718 d83c 92a2 b13e 7d33 98bf
00000370: fed7 613f dbe2 813e 41c2 e73e 2220 d13e
00000380: 8188 15bf de7c 413e 474f 933e 3928 dd3e
00000390: 8c52 863e 83ec 1e3e b3e4 74be e344 c6bd
000003a0: 2bb6 0b3d 06ef 023f d0b4 f7be 9ad0 f63e
000003b0: 85bd b9bf c77a e33d 2023 0e3e 60c3 72be
000003c0: b0dd 2e3e 56bc 61be 225c 033e 6503 a23e
000003d0: 6896 2abc 4d18 9d3e 400c e4bd e173 26bf
000003e0: 473f 363f 78ad 0f3f 7895 ac3d 835b 583f
000003f0: 4c62 3cbe 5da1 073e dc5b e1be 5831 1b3c

fc2.bias f4 [10]
-10.197227 15.026649 4.0190973 2.6478646 -2.483742 8.588838 -7.1470485 6.770173
-11.5881605 -5.510586
00000000: d727 23c1 286d 7041 729c 8040 9d76 2940
00000010: a1f5 1ec0 e16b 0941 9fb4 e4c0 42a5 d840
00000020: 1b69 39c1 b856 b0c0
