models/MNIST28x28_coh_N[30].pth (torch, 96611 bytes, 3 tensors)

fcs.0.weight f4 [30, 784]
0	0xbc8a4f49	-0.01688351
1	0xbd2f3671	-0.04277653
2	0xbb2583b4	-0.0025255503
3	0x3d0e77d7	0.034782257
4	0xbdb751f2	-0.08951177
5	0xbdadef77	-0.0849294
6	0xbe14203b	-0.1446542
7	0xbe3f1779	-0.18661298
8	0xbe453b1c	-0.1926083
9	0xbe947c39	-0.29001024
10	0xbec0547c	-0.37564456
11	0xbecbd0c3	-0.3980771
12	0xbeb64b2c	-0.35604227
13	0xbe8b15f4	-0.27165186
14	0xbea7baaf	-0.32759616
15	0xbea6e7bd	-0.32598677
16	0xbe95ab30	-0.29232168
17	0xbe3c7235	-0.18402942
18	0xbd7f5bee	-0.06234353
19	0xbe1f40bb	-0.15552036
20	0xbe1297bd	-0.14315696
21	0xbe165284	-0.14679915
22	0xbe85f94d	-0.26166764
23	0xbe15e57c	-0.14638323
24	0xbe35c7a8	-0.17751944
25	0x3c5cf4ec	0.013486128
26	0xbc982dff	-0.01857662
27	0xbd92e973	-0.07173433
28	0x3d883bb2	0.06652011
29	0x3b9ba1cd	0.0047495128
30	0x3cfb119d	0.030648047
31	0xbd84f681	-0.064923294
32	0x3b9ee9e1	0.004849658
33	0xbdfca058	-0.12335271
34	0xbe85f380	-0.26162338
35	0xbeaeab55	-0.3411509
36	0xbe9ee3b2	-0.31033093
37	0xbe91376a	-0.2836259
38	0xbe84b3ff	-0.25918576
39	0xbead0655	-0.33793893
40	0xbe76b4b8	-0.24092376
41	0xbe1e9338	-0.15485847
42	0xbdadee12	-0.08492674
43	0xbc06ba78	-0.008223169
44	0xbd7a4a1a	-0.061105825
45	0xbe4043ab	-0.18775813
46	0xbe740704	-0.23830801
47	0xbe771a40	-0.24131107
48	0xbe3b65f6	-0.18300614
49	0xbe20803d	-0.15673919
50	0xbe8a3d49	-0.26999882
51	0xbef192d3	-0.4718233
52	0xbee34a2f	-0.44392535
53	0xbe93f81e	-0.28900236
54	0xbe0295be	-0.12752435
55	0xba4fa451	-0.00079209084
56	0xbce62a49	-0.028096335
57	0x3bc68338	0.006058123
58	0x3d7890be	0.060684912
59	0x3ccd9536	0.025095563
60	0x3d674758	0.056464523
61	0xbd6c9d51	-0.057767216
62	0xbe1ce8e0	-0.1532321
63	0x3b595884	0.0033164332
64	0xbd67a0e3	-0.056549918
65	0xbdbe2c65	-0.09285811
66	0x3c54c6ca	0.012986848
67	0xbd3f06f7	-0.0466375
68	0xbe20083a	-0.15628138
69	0xbe4a7643	-0.19771676
70	0xbe2019d0	-0.15634847
71	0xbe055343	-0.13020043
72	0xbd94405b	-0.07238837
73	0xbc74b5fb	-0.014935966
74	0x3d1abc1d	0.037777055
75	0x3d8177cd	0.06321678
76	0xbd7a2b54	-0.061076477
77	0xbddbe89d	-0.10737727
78	0x3be5c0b3	0.007011497
79	0xbc4015de	-0.011723964
80	0xbe8615e5	-0.2618858
81	0xbe8856eb	-0.26628813
82	0xbe3acf26	-0.18243083
83	0xbda306f2	-0.07960309
84	0x3d41eaf9	0.047343228
85	0x3d0caa6f	0.034342226
86	0xbdd79032	-0.1052555
87	0x3d83b874	0.06431666
88	0x3d34f8f4	0.044182733
89	0xbdd2588a	-0.10270794
90	0xbdbfa844	-0.09358266
91	0x3ccf285f	0.025287805
92	0xbe4a6f53	-0.1976903
93	0xbe1e0bcd	-0.15434189
94	0xbdba2f6f	-0.090910785
95	0xbd68780a	-0.056755103
96	0xbd35b474	-0.044361547
97	0xbda4a1ae	-0.080386505
98	0x3c901eaa	0.017592747
99	0x3d70feaf	0.058836635
100	0x3d7c859b	0.061650854
101	0x3d5d285b	0.053993564
102	0x3d056d89	0.032575164
103	0x3cc7966e	0.024363723
104	0x3da8ad58	0.08236188
105	0x3db94a72	0.090474024
106	0x3d4ee015	0.05050667
107	0x3de706a7	0.11280566
108	0xbd470b72	-0.0485949
109	0xbe50a959	-0.20377101
110	0xbe69269b	-0.22768633
111	0xbd54c52e	-0.051945858
112	0x3d46a71d	0.048499215
113	0x3dd4c5f1	0.10389317
114	0xbd0b6450	-0.034031212
115	0xbe236bfd	-0.15959163
116	0xbee46647	-0.4460928
117	0xbf05a42e	-0.52203643
118	0xbe5d697b	-0.21622269
119	0xbe0338bd	-0.12814613
120	0xbc85e4e3	-0.016344493
121	0xbd71d9ad	-0.059045482
122	0xbd836b6d	-0.06416974
123	0xbd940d36	-0.07229082
124	0xbd674afc	-0.056467995
125	0xbd26823c	-0.040651545
126	0xbae17918	-0.0017202226
127	0x3c367a17	0.011137507
128	0x3d24c877	0.04023024
129	0x3d221519	0.0395709
130	0x3ce5442a	0.027986605
131	0x3d139918	0.036034673
132	0x3d3e34a3	0.046436917
133	0xbc112241	-0.008858264
134	0x3d16c82b	0.03681199
135	0xbc55e26c	-0.013054471
136	0x3c809681	0.015696766
137	0xbe07c756	-0.13259634
138	0xbe2d6f08	-0.16936886
139	0xbe416e1f	-0.18889664
140	0xbd2391bb	-0.0399339
141	0x3da1aa77	0.07893842
142	0xbdb6d240	-0.08926821
143	0xbdd4f7f6	-0.10398857
144	0xbd8322da	-0.06403132
145	0x3d1175c8	0.035512716
146	0x3d7650c3	0.060135614
147	0x3cb41a04	0.021985061
148	0x3c72dfd7	0.014823875
149	0x3c052e19	0.008128666
150	0xbcab259c	-0.020891957
151	0xbcef8fb1	-0.029243322
152	0xbd9a4104	-0.07531932
153	0xbd08cad3	-0.033396553
154	0xbd0bb233	-0.03410549
155	0xbc0df31f	-0.008663922
156	0x3c135668	0.008992769
157	0xbbfa4e41	-0.007638723
158	0x3bb3acf0	0.0054832622
159	0xbbf0fd3e	-0.0073544076
160	0x3cbea1dd	0.023270542
161	0x3d4852c9	0.048907075
162	0x3c6e14ca	0.014531324
163	0x3d6a9566	0.057271384
164	0x3d84bd17	0.064813785
165	0x3d39f60e	0.04540067
166	0xbda7c1be	-0.0819125
167	0xbe122b8c	-0.14274424
168	0x3c5e03f1	0.013550744
169	0x3e51827f	0.20459937
170	0x3d383b73	0.04497857
171	0x3d0cd2bc	0.03438066
172	0x3d857f33	0.06518402
173	0x3aad8fcf	0.0013241711
174	0xbd2652e1	-0.040606383
175	0x3c4be075	0.012443651
176	0x3d22723a	0.039659716
177	0x3d873816	0.066024944
178	0x3ca28637	0.01983939
179	0xbce444f5	-0.027864913
180	0xbbfafc84	-0.0076594967
181	0x3c2db373	0.010601866
182	0xbd561c68	-0.052273184
183	0xbd23c892	-0.0399862
184	0x3c6a8f45	0.014316385
185	0x3cdcf0c3	0.026970273
186	0x3c453e05	0.012038712
187	0x3a2120b1	0.0006146534
188	0x3cce988e	0.025219228
189	0x3d248164	0.04016246
190	0x3934fe3e	0.0001726085
191	0x3da1d074	0.079010874
192	0x3d628e6c	0.055311605
193	0x3d7f2fea	0.062301554
194	0x3bed45d2	0.0072409892
195	0xbcb9f07e	-0.022697683
196	0x3c8129a9	0.015766935
197	0x3dbc53a8	0.09195644
198	0xbd93906f	-0.07205283
199	0x3d5ac55b	0.05341087
200	0x3d9a0749	0.07520921
201	0x3d260558	0.04053244
202	0xbd500849	-0.05078915
203	0xbbd0c88f	-0.0063715647
204	0x3c553fa6	0.013015663
205	0x3d16407a	0.036682583
206	0x3c83ba5a	0.01608007
207	0x3d06149d	0.032734502
208	0xbc81b2c4	-0.015832312
209	0xbd40f827	-0.047111657
210	0xbb9a6846	-0.0047121374
211	0x3b622be2	0.003451102
212	0xbc6306c4	-0.0138565935
213	0x3bd93097	0.006628107
214	0xbb99f360	-0.004698202
215	0x3afd6184	0.001933143
216	0x3c7fd1d0	0.015613988
217	0x3b8fa566	0.0043837307
218	0x3a337645	0.00068459316
219	0x3cd1b993	0.025601184
220	0x3c82b448	0.015955105
221	0xbb9ef05c	-0.0048504304
222	0x3ce77a95	0.028256694
223	0x3c330f64	0.010928962
224	0xbd8087b7	-0.062758856
225	0x3cd16d01	0.025564672
226	0x3d15b15e	0.036546104
227	0xbd48113b	-0.048844557
228	0xbbf3bc0f	-0.00743819
229	0xbd067d53	-0.032834362
230	0xbca65dea	-0.020308454
231	0xbc9f03a1	-0.01941091
232	0xbb3d01c8	-0.0028840173
233	0x3a0752dd	0.0005162189
234	0x3cdfe6a1	0.027331652
235	0x3a6784e4	0.0008831753
236	0xbcba28a6	-0.02272446
237	0x3ca5b332	0.020227049
238	0xbccfa6b8	-0.025348052
239	0xbc8d323e	-0.017235871
240	0xbcbbc412	-0.022920642
241	0x3c9505b4	0.018191196
242	0x3cfe4047	0.03103651
243	0x3cee81c3	0.02911461
244	0x3d66d211	0.05635268
245	0x3cb76ac9	0.022389786
246	0x3cf43728	0.029811457
247	0x3d79d791	0.060996596
248	0x3d3e5a76	0.04647299
249	0x3da1987a	0.07890411
250	0xbdcdb8ff	-0.10045051
251	0x3d8e3287	0.06943231
252	0xbb2610a6	-0.0025339513
253	0xbbed6e31	-0.007245802
254	0x3c4d5c57	0.012534223
255	0x3d65a3c8	0.056064397

last_fc.weight f4 [10, 30]
0	0x3ec6aadb	0.38802227
1	0x3f6f7ff6	0.9355463
2	0xbf6b76e9	-0.9197832
3	0xbe95ccee	-0.2925791
4	0xbef61ff3	-0.4807125
5	0x3f88b496	1.068011
6	0xbea3afa3	-0.31969938
7	0x4008a326	2.1349578
8	0xbe8ceb52	-0.27523285
9	0x3fa6c6b2	1.3029387
10	0x3fdc67fd	1.7219235
11	0x3a95244b	0.0011378614
12	0x3f9e7a39	1.2381049
13	0xbe2f129e	-0.17096946
14	0xbfba7c1a	-1.4569123
15	0xbf73f0dd	-0.95289403
16	0x3f934b60	1.1507378
17	0xbed0fb9c	-0.40816963
18	0xbf9c94d3	-1.2232918
19	0x3f24435b	0.64165276
20	0x3fedbf39	1.8573982
21	0x3fca16c6	1.57882
22	0xbea7bae8	-0.32759786
23	0xbe791d60	-0.24327612
24	0xbf7dbd09	-0.9911657
25	0x3f7aa649	0.9790998
26	0xbfb7c324	-1.4356427
27	0xbfb07081	-1.3784333
28	0x3f781485	0.9690631
29	0xbfcd2222	-1.6026042
30	0xbfa3c9cc	-1.2795959
31	0x3e620129	0.22070755
32	0x3f37d060	0.7180233
33	0xbf8f4eda	-1.1195939
34	0x3f850dbe	1.0394819
35	0x3efb6e50	0.491076
36	0xbf29937e	-0.6624068
37	0xbe047e37	-0.12938772
38	0xbfa533f2	-1.2906477
39	0xbe834479	-0.25638178
40	0xbf27b1c2	-0.6550561
41	0x3f876bb5	1.0579745
42	0xbf250a41	-0.6446877
43	0xbf67a278	-0.9048228
44	0xbf97fbaf	-1.1873683
45	0x3edab2e2	0.42714602
46	0xbf7e6077	-0.99365944
47	0x3f1cf964	0.6131804
48	0x3f5eceaa	0.87034094
49	0xbf36b52e	-0.7137021
50	0xbfca7786	-1.5817726
51	0xbfef0529	-1.867345
52	0xbf81914f	-1.012247
53	0xbf9b179f	-1.2116584
54	0x3f937259	1.1519271
55	0xbfaf0078	-1.3672018
56	0x3f8f0444	1.1173177
57	0xbfc17b64	-1.5115781
58	0xbf363903	-0.7118074
59	0x3f776d2d	0.96650964
60	0x3f45e7f6	0.7730707
61	0x3f62399d	0.8836916
62	0x3ef20738	0.47271132
63	0x3ec5b253	0.38612613
64	0x3f57dffe	0.8432616
65	0x3f1fd43f	0.62433237
66	0x3f967bd6	1.1756542
67	0x3fa1ff01	1.2655946
68	0x3f2ecb6e	0.6827916
69	0x3ef5fc36	0.48043984
70	0x3f8ea322	1.1143534
71	0xbdbf215c	-0.09332535
72	0x3f33ad3e	0.7018622
73	0xbf698d4a	-0.91231215
74	0xbecd21ce	-0.40064853
75	0xbf88f25c	-1.0698962
76	0xbfeb70f0	-1.8393841
77	0xbf8191ee	-1.0122659
78	0x3f5ca6f5	0.86192256
79	0x3f1cca6b	0.61246365
80	0xbf8dadf2	-1.1068709
81	0x3eee25a3	0.4651309
82	0x3f90ebca	1.1321957
83	0x3ee3f840	0.44525337
84	0x3f42fb07	0.7616429
85	0xbedec5a5	-0.43510166
86	0x3ed73c50	0.42038202
87	0xbc3ae13d	-0.01140624
88	0xbfeeec5f	-1.8665885
89	0xbf91adeb	-1.13812
90	0x3ec1203f	0.37719914
91	0x3f252706	0.6451267
92	0x3f97dd6a	1.1864445
93	0x3f822b18	1.0169401
94	0x3f70dc27	0.94085926
95	0xbe66835c	-0.22511047
96	0x3fa06d70	1.2533398
97	0xbf7d3c18	-0.9891982
98	0xbe2b177c	-0.16708177
99	0x3f04ce1b	0.5187699
100	0xbffbf087	-1.9682778
101	0x3efc2405	0.4924623
102	0x3f6339a0	0.88759804
103	0xbf20c0f2	-0.6279441
104	0x3f70f593	0.94124717
105	0x3f3cc7ba	0.7374226
106	0xbe983084	-0.29724514
107	0xbf60a626	-0.8775352
108	0x3f2ab23f	0.6667823
109	0x3e2958ec	0.16537827
110	0xbe71c050	-0.23608518
111	0xbf35fc88	-0.7108846
112	0xbf13d9f5	-0.5775445
113	0x3f557f66	0.8339752
114	0xbf786855	-0.970342
115	0x3ef4342b	0.4769605
116	0xbf927147	-1.144082
117	0x3f901c0f	1.1258563
118	0xbfdcb771	-1.7243482
119	0xbd7c9952	-0.061669655
120	0x3f5fe56a	0.87459433
121	0xbfa0c3ab	-1.2559713
122	0xbf7ee1ec	-0.9956348
123	0xbfa36c12	-1.2767355
124	0x3e01ddf1	0.1268232
125	0x3f3d7412	0.74005234
126	0xbf217618	-0.6307082
127	0xbfcda987	-1.6067361
128	0x3f61cc11	0.88202006
129	0xbfeba68d	-1.8410202
130	0xbf224777	-0.63390297
131	0x3ec65e53	0.3874384
132	0xbfc06858	-1.5031843
133	0xbf892337	-1.0713872
134	0x3f65d901	0.89784247
135	0xbdfe75cd	-0.124248125
136	0x3f4c38da	0.7977425
137	0x3f57ff0d	0.8437355
138	0xbf916f70	-1.1362133
139	0x3f2650b4	0.64966893
140	0x3dab0693	0.08350863
141	0x3f165d98	0.5873656
142	0x3f9469e7	1.1594819
143	0xbfaa225f	-1.3291739
144	0x3f6137ab	0.8797557
145	0xbf7c21d8	-0.9848914
146	0x3f7594d7	0.95930237
147	0x3f00da2b	0.503329
148	0x3f8967d3	1.073481
149	0x3f179bbd	0.5922201
150	0x3ecf5cab	0.40500388
151	0xbfa47685	-1.2848669
152	0xbf22c5a4	-0.63582826
153	0x3f287f64	0.6581938
154	0xbaf6b741	-0.0018822924
155	0xc008d809	-2.1381857
156	0xbe4b2acf	-0.19840549
157	0xbf0bcd08	-0.5460973
158	0x3d5ddcec	0.054165766
159	0x3ec4102a	0.38293582
160	0xbfdacbb9	-1.7093421
161	0xbf067252	-0.5251819
162	0x3f2f1368	0.68388987
163	0x3fbadda7	1.4598893
164	0x3f01afa8	0.50658655
165	0xbdd3e76c	-0.103468746
166	0x3e207e86	0.15673265
167	0x3f834b5a	1.025737
168	0xbe4e5c67	-0.20152436
169	0xbfd48f69	-1.6606265
170	0xbe02e98e	-0.12784407
171	0xbf103661	-0.56332976
172	0xbf057111	-0.5212565
173	0x3f02e5a2	0.5113164
174	0xbf3af85e	-0.7303523
175	0x3f6562a0	0.89603615
176	0xbf235dec	-0.6381519
177	0x3f5999cc	0.850003
178	0x3efb9d78	0.49143577
179	0xbe871764	-0.26385033
180	0xbf18802d	-0.5957058
181	0xbfbdf362	-1.48399
182	0xbf67193b	-0.90272874
183	0xbf952ec5	-1.1654898
184	0xbf815f7a	-1.0107262
185	0xbfc18d93	-1.512133
186	0xbfafccf4	-1.3734422
187	0x3fef847b	1.8712305
188	0x3f9d2438	1.2276678
189	0x3fa8f094	1.3198419
190	0x3ff0fee2	1.8827784
191	0x3f900414	1.1251245
192	0x3e103dd1	0.14086081
193	0x3faddd28	1.3583117
194	0x3e900c42	0.28134352
195	0xbfa8f3a2	-1.3199351
196	0x3f2f380a	0.68444884
197	0x3f155155	0.5832723
198	0x3f786352	0.9702655
199	0xbf83847b	-1.0274805
200	0x3f971ec6	1.1806266
201	0x3fa0a127	1.254918
202	0x3f6f06fd	0.9337004
203	0xbf9618e7	-1.172635
204	0xbf2c92e9	-0.6741167
205	0xbfe99626	-1.8248947
206	0x3f0a8a16	0.5411695
207	0xbf03345b	-0.51251763
208	0x3f53933f	0.82646555
209	0xbf2cf16a	-0.6755587
210	0xbf4bec08	-0.7965703
211	0x3e369667	0.17830811
212	0xbf27af38	-0.6550174
213	0x3f9fca7a	1.2483666
214	0x3f508ce3	0.81464976
215	0x3f26836d	0.6504429
216	0x3f9ebb9f	1.2401007
217	0xbfe5a774	-1.7941728
218	0x3ebaa89a	0.36456758
219	0xbfed99ff	-1.8562621
220	0xbdf02fc7	-0.11727863
221	0xbf2b856c	-0.6700046
222	0xbfbe00d8	-1.4844007
223	0x3e9f89fd	0.31159964
224	0xbf83bd59	-1.0292159
225	0x3f8f085f	1.117443
226	0xbfb42d40	-1.4076309
227	0xbf5ddd90	-0.866662
228	0x3f008dbf	0.5021629
229	0x3f21df1f	0.6323108
230	0x3f29a926	0.66273725
231	0xbec7c78d	-0.39019433
232	0xbf0913ab	-0.53545636
233	0x3f97c4e1	1.1856958
234	0x3f4e633a	0.8062016
235	0x3f5e76f3	0.8690025
236	0xbe7abd5b	-0.24486296
237	0xbf8ff10c	-1.1245437
238	0xbf789820	-0.97107124
239	0x3f63d9cf	0.89004225
240	0xbfad3819	-1.3532745
241	0xbe395b7f	-0.18101309
242	0x3f3c0e2b	0.7345912
243	0x3ef649d7	0.4810321
244	0xbf25fd0c	-0.64839244
245	0x3dbca439	0.092110105
246	0xbe9eef27	-0.31041834
247	0x3f4a7ed1	0.79099756
248	0xbea3a2a3	-0.3196002
249	0x3f766a6b	0.9625613
250	0x3f809a46	1.004708
251	0xbf3a8dcc	-0.72872615
252	0x3f560618	0.8360305
253	0xbe0a6595	-0.13515313
254	0x3ee72845	0.4514791
255	0x3f123344	0.57109475

last_fc.bias f4 [10]
0	0xc09931b7	-4.7873187
1	0x409b0987	4.844913
2	0xc0016ac8	-2.0221424
3	0x3e9d2c39	0.30697802
4	0x3f871b26	1.055516
5	0x4064e893	3.5766952
6	0xc04157ca	-3.0209832
7	0x400f9c97	2.2439325
8	0xbff82746	-1.9386985
9	0x3e8b5c90	0.27219057
