models/MNIST28x28_incoh_N20.pth (torch, 64867 bytes, 3 tensors)

fc1.weight f4 [20, 784]
0	0x3bfa38d3	0.0076361685
1	0x00000000	0.0
2	0x3cf47dc5	0.029845128
3	0x3c7864b8	0.015160732
4	0x00000000	0.0
5	0x00000000	0.0
6	0x3c23f2ae	0.01000659
7	0x00000000	0.0
8	0x00000000	0.0
9	0x00000000	0.0
10	0x00000000	0.0
11	0x00000000	0.0
12	0x3ca536ea	0.020167787
13	0x3bd91305	0.0066245818
14	0x3b05537a	0.0020343945
15	0x38b1c2a0	8.4762694e-05
16	0x3d078267	0.033083346
17	0x00000000	0.0
18	0x00000000	0.0
19	0x00000000	0.0
20	0x00000000	0.0
21	0x3c85c903	0.016331201
22	0x00000000	0.0
23	0x00000000	0.0
24	0x00000000	0.0
25	0x3c9df927	0.019283844
26	0x00000000	0.0
27	0x00000000	0.0
28	0x3cb38b17	0.02191691
29	0x00000000	0.0
30	0x3cc16053	0.023605501
31	0x00000000	0.0
32	0x361e57f4	2.359503e-06
33	0x3cac3969	0.021023469
34	0x3dc246a7	0.09486132
35	0x3dcab78b	0.09898289
36	0x3c86f258	0.01647298
37	0x3c4fbaa4	0.012678776
38	0x3d9a777e	0.075423226
39	0x361c113e	2.3255848e-06
40	0x354780b6	7.4320576e-07
41	0x00000000	0.0
42	0x3e664776	0.22488198
43	0x367763f8	3.6864058e-06
44	0x35902ab8	1.0741269e-06
45	0x00000000	0.0
46	0x3e111e45	0.14171703
47	0x3d358be6	0.04432287
48	0x3d2ac73e	0.04169392
49	0x372720e4	9.961634e-06
50	0x3cfa54e8	0.030558065
51	0x3d0534b3	0.03252096
52	0x3d0a8a65	0.03382339
53	0x3bc2a577	0.005940135
54	0x3b4ade01	0.0030955079
55	0x3cab0a3a	0.0208789
56	0x00000000	0.0
57	0x3ae1304a	0.0017180529
58	0x3b0e6f7f	0.0021733937
59	0x00000000	0.0
60	0x00000000	0.0
61	0x3d019a57	0.03164133
62	0x3ecc2972	0.3987537
63	0x00000000	0.0
64	0x3ec59b25	0.38594928
65	0x3f9c9a6c	1.2234626
66	0x3f72e517	0.94880813
67	0x3f853daa	1.0409443
68	0x3f66dd21	0.90181166
69	0x3f93aabf	1.1536483
70	0x3f0883eb	0.5332629
71	0x3f379465	0.7171081
72	0x3f053779	0.5203777
73	0x4003e31a	2.0607362
74	0x3fa26b0a	1.2688916
75	0x385960e8	5.1827083e-05
76	0x3fef7993	1.8708977
77	0x3f84754e	1.0348299
78	0x3f356072	0.7085029
79	0x3eeebe5f	0.46629617
80	0x3f2929e1	0.6607953
81	0x3eb59d54	0.35471594
82	0x00000000	0.0
83	0x00000000	0.0
84	0x00000000	0.0
85	0x3d0755e4	0.033040896
86	0x3cc4f021	0.024040284
87	0x00000000	0.0
88	0x3a4be61e	0.00077781256
89	0x38111e61	3.4598987e-05
90	0x3e6d8a02	0.23197177
91	0x3a0cd86a	0.00053728244
92	0x3a03664d	0.00050124974
93	0x3eafa913	0.3430868
94	0x387afc2e	5.9839505e-05
95	0x3e8dc8db	0.27692303
96	0x3bee4333	0.0072711944
97	0x3b22bd90	0.0024832226
98	0x3be5e756	0.007016103
99	0x3e824bf1	0.25448564
100	0x3cce307d	0.025169605
101	0x3dcc1cc5	0.09966425
102	0x3a501be9	0.0007938729
103	0x3a5205c5	0.0008011724
104	0x00000000	0.0
105	0x39dbc936	0.0004192085
106	0x3a050e59	0.00050756853
107	0x390be3bf	0.00013340915
108	0x334f7561	4.83027e-08
109	0x00000000	0.0
110	0x00000000	0.0
111	0x39548801	0.00020268561
112	0x00000000	0.0
113	0x35178deb	5.64584e-07
114	0x3cbf6e40	0.023368001
115	0x3268c74e	1.3549494e-08
116	0x3da4fcf3	0.08056059
117	0x3f070ce2	0.5275403
118	0x3a614c76	0.00085944624
119	0x3afd97ce	0.001934761
120	0x3ea028df	0.31281182
121	0x39b4b208	0.0003446492
122	0x371341ed	8.777232e-06
123	0x3a3a7a34	0.00071135466
124	0x3c2bf792	0.010496037
125	0x00000000	0.0
126	0x00000000	0.0
127	0x00000000	0.0
128	0x00000000	0.0
129	0x00000000	0.0
130	0x00000000	0.0
131	0x00000000	0.0
132	0x00000000	0.0
133	0x00000000	0.0
134	0x00000000	0.0
135	0x00000000	0.0
136	0x00000000	0.0
137	0x00000000	0.0
138	0x00000000	0.0
139	0x3c2323fd	0.009957311
140	0x00000000	0.0
141	0x3c4a786e	0.012357814
142	0x3e51260d	0.20424671
143	0x377f940f	1.5233657e-05
144	0x3b09a8ba	0.002100511
145	0x3b7b3745	0.0038332504
146	0x3b2e52c0	0.0026599616
147	0x3e1000fc	0.14062876
148	0x3b593f5b	0.0033149335
149	0x3b865b05	0.004100206
150	0x3c8098af	0.015697805
151	0x3b157855	0.002280732
152	0x00000000	0.0
153	0x00000000	0.0
154	0x00000000	0.0
155	0x00000000	0.0
156	0x00000000	0.0
157	0x00000000	0.0
158	0x00000000	0.0
159	0x00000000	0.0
160	0x00000000	0.0
161	0x00000000	0.0
162	0x00000000	0.0
163	0x00000000	0.0
164	0x00000000	0.0
165	0x00000000	0.0
166	0x00000000	0.0
167	0x35c1bb69	1.4434164e-06
168	0x3d008758	0.031379074
169	0x3a41b75e	0.00073896896
170	0x3ca8af41	0.02059138
171	0x00000000	0.0
172	0x36b41f51	5.3680637e-06
173	0x3a90ecbf	0.0011056884
174	0x3b7f7f0f	0.0038985645
175	0x3ddc4bbd	0.107566334
176	0x3db28fc2	0.08718826
177	0x3d998ede	0.07497953
178	0x00000000	0.0
179	0x00000000	0.0
180	0x00000000	0.0
181	0x00000000	0.0
182	0x00000000	0.0
183	0x00000000	0.0
184	0x00000000	0.0
185	0x00000000	0.0
186	0x00000000	0.0
187	0x00000000	0.0
188	0x00000000	0.0
189	0x00000000	0.0
190	0x00000000	0.0
191	0x00000000	0.0
192	0x00000000	0.0
193	0x00000000	0.0
194	0x39303444	0.00016804138
195	0x3818979c	3.638082e-05
196	0x00000000	0.0
197	0x00000000	0.0
198	0x3f1308e0	0.5743542
199	0x00000000	0.0
200	0x3a79f3e2	0.00095349376
201	0x3981108e	0.00024617132
202	0x3a8a97b9	0.0010573781
203	0x39aa0d1c	0.00032434694
204	0x00000000	0.0
205	0x00000000	0.0
206	0x00000000	0.0
207	0x00000000	0.0
208	0x00000000	0.0
209	0x00000000	0.0
210	0x00000000	0.0
211	0x00000000	0.0
212	0x00000000	0.0
213	0x00000000	0.0
214	0x00000000	0.0
215	0x00000000	0.0
216	0x00000000	0.0
217	0x00000000	0.0
218	0x00000000	0.0
219	0x00000000	0.0
220	0x00000000	0.0
221	0x391f3fc0	0.0001518717
222	0x39c56287	0.00037648177
223	0x39062be4	0.00012795586
224	0x00000000	0.0
225	0x00000000	0.0
226	0x00000000	0.0
227	0x00000000	0.0
228	0x378ccfea	1.6786118e-05
229	0x00000000	0.0
230	0x00000000	0.0
231	0x00000000	0.0
232	0x00000000	0.0
233	0x00000000	0.0
234	0x00000000	0.0
235	0x00000000	0.0
236	0x00000000	0.0
237	0x00000000	0.0
238	0x00000000	0.0
239	0x00000000	0.0
240	0x00000000	0.0
241	0x00000000	0.0
242	0x00000000	0.0
243	0x00000000	0.0
244	0x00000000	0.0
245	0x00000000	0.0
246	0x00000000	0.0
247	0x00000000	0.0
248	0x00000000	0.0
249	0x00000000	0.0
250	0x3f135202	0.5754701
251	0x00000000	0.0
252	0x00000000	0.0
253	0x00000000	0.0
254	0x00000000	0.0
255	0x00000000	0.0

fc2.weight f4 [10, 20]
0	0xc01df355	-2.4679768
1	0x3fcd325c	1.6030993
2	0x3efc9313	0.4933096
3	0x3fa50631	1.2892514
4	0x3f92e6bd	1.1476666
5	0x3e9ae24e	0.30250782
6	0xbfb51f16	-1.4150112
7	0xc01f56cd	-2.489673
8	0x3ede90b9	0.4346979
9	0x3f783073	0.9694893
10	0x3eb3a1b8	0.3508432
11	0xbf07a4df	-0.5298595
12	0x400e1d23	2.2205284
13	0x3f8f18ed	1.1179482
14	0xbf6ae707	-0.9175877
15	0x3fc76c0a	1.5579846
16	0xbee9e8a9	-0.45685318
17	0x3fb6e0e1	1.4287378
18	0x3fc5457a	1.5411828
19	0x4039f903	2.9058235
20	0x3fec420f	1.845766
21	0xbf7ee6f2	-0.99571145
22	0xbf982778	-1.1887045
23	0xbfff2b61	-1.9935113
24	0xbf7909e7	-0.97280735
25	0xbfbce491	-1.4757253
26	0xbf12b940	-0.5731392
27	0x3cff0988	0.031132475
28	0x40065f32	2.0995603
29	0xbec6e71d	-0.388482
30	0xbecde50d	-0.40213814
31	0xbf4efe44	-0.8085673
32	0xc012a34f	-2.2912176
33	0x3ecec845	0.4038717
34	0x3fd521f3	1.6650985
35	0xbf9dcffc	-1.2329097
36	0xbf3e05d5	-0.7422765
37	0xc018ad72	-2.3855863
38	0xbe7ac0f0	-0.24487662
39	0xbf91a188	-1.137742
40	0x3f49e1c9	0.78860146
41	0x3f9ad45a	1.2096055
42	0xbff53b1b	-1.9158663
43	0x3fbd3733	1.478247
44	0xbf606e9f	-0.87668794
45	0xbf720032	-0.9453155
46	0xbec1f6cf	-0.37883613
47	0xbf130149	-0.57423836
48	0x3de705b2	0.11280383
49	0x3f89078f	1.0705432
50	0x40329047	2.790056
51	0xbf8a3baa	-1.0799458
52	0xbf502cf4	-0.81318593
53	0x3f422747	0.7584118
54	0xbf93be01	-1.154236
55	0xc018cd96	-2.387548
56	0x3e279a50	0.1636746
57	0x3f6102a8	0.8789468
58	0x3f171782	0.59020245
59	0x3f34d150	0.70631886
60	0xbdcabed4	-0.09899679
61	0x3ea6a335	0.32546392
62	0xbfe323c2	-1.7745287
63	0x3f5959b7	0.8490252
64	0x3f7a13f0	0.9768667
65	0xbfa3f0f4	-1.2807908
66	0x3f7625f5	0.9615167
67	0x3ee5d5c5	0.44889656
68	0xbf34207f	-0.70362085
69	0xc002c469	-2.043238
70	0x3fbee8e6	1.4914825
71	0x3e158826	0.14602718
72	0xbf0f5c57	-0.56000274
73	0xbff3484a	-1.9006436
74	0x3f7f097f	0.99623865
75	0xbf7d75a7	-0.9900765
76	0x3f00fdb3	0.50387114
77	0x3dd7b921	0.105333574
78	0x3f15b162	0.5847379
79	0x3f1dd496	0.61652505
80	0x3edfde76	0.43724412
81	0x3e966081	0.29370502
82	0x3f9341c2	1.1504443
83	0xc0268d7b	-2.6023853
84	0xbfdb8607	-1.7150277
85	0xbf013652	-0.5047351
86	0x3f8523fb	1.0401605
87	0x3f711852	0.94177735
88	0x3e9905a6	0.29887122
89	0xbf11f033	-0.5700714
90	0xbff7e397	-1.936633
91	0x3f2687f8	0.6505122
92	0x3fc765ae	1.5577905
93	0xbee31d2d	-0.44358197
94	0xbfac1cc5	-1.344628
95	0x3ff44fb5	1.9086825
96	0xbe68e175	-0.22742255
97	0x3ece67d6	0.40313596
98	0x3f95b030	1.1694393
99	0xc021147a	-2.5168748
100	0xbf2f755e	-0.68538463
101	0xc008c85a	-2.1372285
102	0x3f939185	1.1528784
103	0xbe9fe9e9	-0.31233147
104	0x3fba8cfa	1.4574273
105	0x3ff36588	1.901536
106	0x3f126a48	0.5719342
107	0xbf412eb4	-0.7546189
108	0xbf929e1b	-1.14545
109	0xbfb4ffc8	-1.4140558
110	0x3f575d5b	0.84126824
111	0xbe244c46	-0.16044721
112	0x3e6931c5	0.22772892
113	0xbfc39082	-1.5278475
114	0x3e09ef75	0.13470252
115	0x3eff7fce	0.49902195
116	0x3f990bcb	1.1956724
117	0xbf7377d2	-0.95104706
118	0xc015b6a0	-2.3392715
119	0x3faacc84	1.3343663
120	0x3e2e7edf	0.17040585
121	0xc0244f58	-2.5673428
122	0x3f20da8e	0.6283349
123	0xbfae84f5	-1.3634325
124	0x3e5afc3c	0.21385282
125	0x3e736e82	0.23772624
126	0xbf13b161	-0.57692534
127	0x3e84af9f	0.25915238
128	0x40853be5	4.1635613
129	0x40096121	2.1465533
130	0xbc3e846f	-0.011628254
131	0xc059f168	-3.4053593
132	0x3fb1c2f7	1.3887624
133	0x3fd9505d	1.697765
134	0x3d827026	0.06369047
135	0x3f81ba38	1.0134954
136	0x3feed642	1.8659136
137	0x3f146325	0.5796378
138	0xc028368f	-2.62833
139	0x3f9965c0	1.1984177
140	0xbf8734e8	-1.0563021
141	0x3f91e530	1.1398067
142	0xbf44f572	-0.7693702
143	0xbe0bb65c	-0.13643783
144	0xbf38b6fb	-0.72154206
145	0x3e3f2178	0.18665111
146	0xc03c9dec	-2.9471388
147	0x3f24e75d	0.6441553
148	0xc04a6a8a	-3.1627526
149	0xbee34dc9	-0.44395283
150	0xbfeb52af	-1.8384608
151	0x4027dedf	2.622978
152	0xbf81d297	-1.0142392
153	0x3eaa6de5	0.33286968
154	0x3f18db37	0.59709495
155	0xbfd3b69e	-1.6540105
156	0x3e488c8a	0.19584861
157	0x3f9791d3	1.1841377
158	0x3fa2540b	1.2681898
159	0xbffcdde0	-1.9755211
160	0x3f36a8b9	0.713512
161	0x3ebeb201	0.3724518
162	0x3f466b02	0.7750703
163	0x3f94f4db	1.1637224
164	0x3fd8b6b0	1.6930752
165	0x3f5708a2	0.8399755
166	0x40089844	2.1342936
167	0x3f26051e	0.6485156
168	0x3f172135	0.59035045
169	0x3f7de5a9	0.9917856
170	0x3efead33	0.49741516
171	0x3e91953f	0.28434178
172	0xbf6e7d23	-0.93159693
173	0x3f115b8a	0.567803
174	0x3b264e38	0.0025376212
175	0x3ea9dd8d	0.33176842
176	0xbf0de85c	-0.5543268
177	0xbfd77aec	-1.6834388
178	0x3eccafd6	0.39977902
179	0x3f0fef38	0.56224394
180	0xbde260d5	-0.110536255
181	0x3f52f2c3	0.82401675
182	0x3fb664a3	1.4249462
183	0x3fb37f3e	1.4023206
184	0xbfad3423	-1.3531536
185	0x3eee67af	0.4656348
186	0x3f5ceb2e	0.86296356
187	0x3f9992b3	1.1997894
188	0xc01a235e	-2.4084086
189	0xbf8b2a3b	-1.0872263
190	0xbfb0bc23	-1.3807415
191	0x40324e2f	2.786022
192	0x3f3dfca2	0.7421361
193	0xbed7e3f5	-0.42166105
194	0xbe4934ad	-0.19649
195	0x3f8a17f4	1.078856
196	0xbff2c947	-1.8967675
197	0x3eb23601	0.34806827
198	0x3ef8cdd8	0.48594546
199	0xbfde721c	-1.7378573

fc2.bias f4 [10]
0	0xc0fcd047	-7.9004245
1	0x40d505f5	6.656977
2	0x3c98935c	0.018624954
3	0x40223010	2.5341835
4	0x3fcb12cb	1.586511
5	0x40539a30	3.3062859
6	0xc08b0206	-4.343997
7	0x409ab2e9	4.8343396
8	0xc0ac6d26	-5.388324
9	0xbfad72a6	-1.3550613
