models/MNIST28x28_incoh_N100.pth (torch, 318947 bytes, 3 tensors)

fc1.weight f4 [100, 784]
0.028582886 0.016912466 0.0 0.0 0.0326861 0.0 0.013469727 0.0
0.013638314 0.03533078 0.0 0.0 3.6050675e-05 8.567105e-05 0.019687634 0.010227073
0.0013800861 0.01689974 0.0 0.0 0.0 0.0 0.0 0.0
0.02180151 0.017180767 0.0 0.0028156468 0.021942263 0.00030102476 0.0 0.0019298367
5.356089e-07 0.013345932 0.0025085206 0.0065855645 0.0008444626 0.0033967162 0.0025250523 0.03723432
0.0041760565 0.013554246 0.031151194 0.013809167 0.0055784285 0.002887003 0.028282 0.0026145708
0.036693875 0.017084682 0.0018636443 0.03087514 0.009319494 0.019545425 0.0 0.0
0.0 0.0 0.028691169 6.8579914e-07 0.00026808906 0.00029105583 0.0030102439 0.013548028
0.029520938 0.007915639 2.5870274e-06 1.6384419e-06 0.11126875 0.20143913 0.13971816 0.24908972
0.1800733 0.25681907 0.15048213 0.17576525 0.07749906 0.037477694 0.052689042 0.026343422
0.0029034482 0.0012114592 0.02549579 0.016662568 0.0 0.007291075 0.011048587 0.0008887181
0.034026448 5.2731625e-06 8.709761e-06 7.91159e-06 0.0 0.7201982 0.818759 0.46446416
1.1583728 0.9006253 0.9663569 2.2707574 2.1089818 0.6134101 8.799186e-05 0.6043751
0.412156 0.68018425 0.048989154 0.07706696 0.045935262 0.0052749226 0.029808456 0.0
0.0 0.0 0.003973517 0.0 0.0 0.0 0.0 0.0
0.0 0.00022700733 0.0 0.0 0.0 0.00012792331 0.0008342632 0.0012095892
0.0016027103 0.0007235502 0.0003869465 0.0010631483 0.0013145404 1.3326477 0.4727481 0.34173006
0.11643808 0.025950424 2.3981715e-07 0.020004928 0.007923348 0.0 2.9729003e-07 0.0
0.0 0.0 0.0 0.0 0.0 0.0 0.0 0.0
0.0 0.0 0.0 0.0 1.9709862e-05 0.00013648657 8.3769046e-05 0.0007743475
7.043018e-05 0.0004142386 1.8399881 0.70167893 0.24967737 6.2141953e-07 1.0410521e-06 0.01939258
0.022891305 0.0 4.1319614e-05 0.0 0.0 0.0 0.0 0.0
0.0 0.0 0.0 0.0 0.0 0.0 0.0 0.0
2.3234345e-05 0.0 0.0 5.5338976e-05 0.00011153966 5.112959e-05 1.014618 0.92302406
0.29944295 0.07036051 0.04119865 0.027890522 7.574999e-05 7.3478454e-06 0.00010465643 8.2925995e-05
0.0 0.0 0.0 0.0 0.0 0.0 0.0 0.0
0.0 0.0 0.0 0.0 0.0 0.0 0.0 1.6345633e-05
9.9536424e-05 3.1670734e-05 4.4050444e-06 1.0567207 0.38536033 4.5794486e-06 0.061656274 0.01670072
0.020607447 0.07406492 0.1893384 0.00023368663 0.0 0.0 0.0 0.0
0.0 0.0 0.0 0.0 0.0 0.0 0.00047821482 0.00014156562
0.0 0.0 0.0 0.0 6.3552805e-05 2.1538199e-05 7.676278e-06 1.0150068
0.6311713 0.09300266 3.4442493e-08 0.0 0.0052155005 0.1041501 0.00019547026 0.00022040203
00000000: a826 ea3c 038c 8a3c 0000 0000 0000 0000
00000010: dce1 053d 0000 0000 21b0 5c3c 0000 0000
00000020: 3c73 5f3c 02b7 103d 0000 0000 0000 0000
00000030: 1e35 1738 4baa b338 f647 a13c 748f 273c
00000040: 01e4 b43a 5371 8a3c 0000 0000 0000 0000
00000050: 0000 0000 0000 0000 0000 0000 0000 0000
00000060: 1599 b23c aebe 8c3c 0000 0000 b786 383b
00000070: 43c0 b33c dcd2 9d39 0000 0000 93f2 fc3a
00000080: c3c6 0f35 e5a8 5a3c fe65 243b b8cb d73b
00000090: ed5e 5d3a 719b 5e3b 597b 253b 0483 183d
000000a0: 4dd7 883b a112 5e3c ca30 ff3c d83f 623c
000000b0: 40cb b63b df33 3d3b a7af e73c 3859 2b3b
000000c0: 514c 163d 2df5 8b3c 8745 f43a dded fc3c
000000d0: cab0 183c ba1d a03c 0000 0000 0000 0000
000000e0: 0000 0000 0000 0000 be09 eb3c c217 3835
000000f0: 4e8e 8c39 da98 9839 8347 453b 8cf8 5d3c
00000100: e5d5 f13c 99b0 013c cb9c 2d36 6fe8 db35
00000110: dfe0 e33d 0f46 4e3e 4712 0f3e 6011 7f3e
00000120: 2365 383e ca7d 833e fd17 1a3e cefb 333e
00000130: d4b7 9e3d 3682 193d 77d0 573d 29ce d73c
00000140: c747 3e3b d3c9 9e3a 8cdc d03c f07f 883c
00000150: 0000 0000 f8e9 ee3b 2205 353c ddf8 683a
00000160: 515f 0b3d 1ff0 b036 2320 1237 05bc 0437
00000170: 0000 0000 e95e 383f 319a 513f 3fce ed3e
00000180: 8f45 943f 618f 663f 2a63 773f 1754 1140
00000190: 8ff9 0640 7208 1d3f 4588 b838 54b8 1a3f
000001a0: 1c06 d33e 8e20 2e3f daa8 483d 48d5 9d3d
000001b0: 9d26 3c3d 42d9 ac3b dd30 f43c 0000 0000
000001c0: 0000 0000 0000 0000 4734 823b 0000 0000
000001d0: 0000 0000 0000 0000 0000 0000 0000 0000
000001e0: 0000 0000 d108 6e39 0000 0000 0000 0000
000001f0: 0000 0000 2723 0639 75b2 5a3a 148b 9e3a
00000200: 0912 d23a a2ac 3d3a 15df ca39 5659 8b3a
00000210: a84c ac3a 3394 aa3f 0a0c f23e 3ef7 ae3e
00000220: 1777 ee3d fc95 d43c 38c0 8034 60e1 a33c
00000230: eed0 013c 0000 0000 3b9b 9f34 0000 0000
00000240: 0000 0000 0000 0000 0000 0000 0000 0000
00000250: 0000 0000 0000 0000 0000 0000 0000 0000
00000260: 0000 0000 0000 0000 0000 0000 0000 0000
00000270: 9b56 a537 d61d 0f39 2aad af38 95fd 4a3a
00000280: eab3 9338 2a2e d939 bb84 eb3f 3ba1 333f
00000290: 6dab 7f3e a0cf 2635 47ba 8b35 30dd 9e3c
000002a0: 8c86 bb3c 0000 0000 994e 2d38 0000 0000
000002b0: 0000 0000 0000 0000 0000 0000 0000 0000
000002c0: 0000 0000 0000 0000 0000 0000 0000 0000
000002d0: 0000 0000 0000 0000 0000 0000 0000 0000
000002e0: 60e7 c237 0000 0000 0000 0000 c61b 6838
000002f0: 66ea e938 fb73 5638 01df 813f 4e4b 6c3f
00000300: 9650 993e 2c19 903d eabf 283d aa7a e43c
00000310: f7db 9e38 838d f636 fe7a db38 8ee8 ad38
00000320: 0000 0000 0000 0000 0000 0000 0000 0000
00000330: 0000 0000 0000 0000 0000 0000 0000 0000
00000340: 0000 0000 0000 0000 0000 0000 0000 0000
00000350: 0000 0000 0000 0000 0000 0000 fb1d 8937
00000360: 36be d038 31d6 0438 0bcf 9336 a042 873f
00000370: f34d c53e 2aa9 9936 4a8b 7c3d f3cf 883c
00000380: f3d0 a83c 59af 973d ede1 413e c709 7539
00000390: 0000 0000 0000 0000 0000 0000 0000 0000
000003a0: 0000 0000 0000 0000 0000 0000 0000 0000
000003b0: 0000 0000 0000 0000 e8b8 fa39 3b71 1439
000003c0: 0000 0000 0000 0000 0000 0000 0000 0000
000003d0: a747 8538 eeac b437 5dc9 0037 beeb 813f
000003e0: 7194 213f 2e78 be3d eced 1333 0000 0000
000003f0: cae6 aa3b a64c d53d 26f7 4c39 b81b 6739

fc2.weight f4 [10, 100]
0.1502167 -1.2069411 0.5297496 1.1780788 1.0858169 0.38011017 0.47619176 -1.3004788
-1.0341341 0.9995352 -0.45213446 1.0131605 0.5849091 -0.4679262 -1.4598751 0.25089025
0.8980801 -0.85296327 0.93354243 1.2506812 0.09783236 0.39171916 -0.11045775 0.10136053
-0.004784391 0.83340937 1.1862249 -0.26978114 -1.4700336 0.6616238 0.22929296 -1.0317539
0.18727712 0.016809532 -0.63689655 0.006449532 0.47815728 0.19330765 -0.816002 -0.24983895
-0.3661812 0.09661748 -1.6117898 -0.716412 0.58679795 0.7122503 -0.07898515 0.102053
-0.025287509 1.0879592 0.115008265 1.3716993 0.5660363 0.43334728 0.30786175 1.390473
0.12388265 -1.3402141 -0.38986063 0.15323047 -1.400284 -0.62077475 -0.5958857 0.38835374
0.24283636 -0.33878982 0.6922571 1.5920087 -1.0863768 -0.07167968 0.18215187 0.8530795
0.24169354 0.10479685 0.90789336 0.32467824 0.48738253 0.15847646 0.3395684 0.9138063
0.80409646 -0.79830164 1.0322404 0.57566774 0.20965327 0.92273563 -0.19052091 0.7896892
-0.6028148 -0.53539616 0.71525586 0.4557492 -0.74689597 0.5730097 0.3716004 -0.75579184
0.36097196 1.0416585 0.14769875 -0.09007521 0.27953523 0.40304765 0.17441972 -0.17642953
-0.20674603 -0.4760124 -0.45568955 -0.61852574 -0.06864874 0.052726693 0.22882767 -0.5241378
0.12307039 0.8226 0.6503568 -1.1805259 -0.393528 0.51987255 -0.9773498 -0.12532638
-0.36184156 0.46547616 0.8659249 -0.50241303 1.162672 -0.68471485 0.2542854 -1.0574676
-0.86979514 -0.29071403 -0.530431 0.8027727 -1.4121022 0.452409 0.7615955 -0.16256122
-0.68505895 -0.106284216 -0.7263752 0.46420634 -1.1728855 0.60096693 -0.066414654 -0.30923808
-0.043651775 0.06265665 0.78798676 -0.21566369 -0.52756494 -0.30064628 0.045343187 -0.52476966
-0.49893546 0.42860615 -0.93832004 -0.3511186 -0.92099285 0.9162077 0.7997419 0.4667776
-0.022336265 0.74532616 -1.2577947 0.299733 -0.47126123 -0.0955501 -0.37127692 0.045996837
-1.9916104 0.26513964 -0.13732477 -1.193183 0.14639868 0.21430802 0.13076542 -0.44193515
0.0196665 0.9243309 -0.56049883 -0.56161267 -0.46371973 -0.8620406 -1.3101704 -0.3238996
0.22868334 -1.1463425 -0.40301925 -0.8245811 0.25014395 0.0144130485 0.0041433917 -0.19333269
-0.23209897 0.009590242 -0.43904746 -0.07976432 0.1630537 -0.4037386 0.400234 0.09557999
-0.0230869 -0.35659313 0.45739123 -1.4939101 0.7309917 0.19535805 -0.3115642 -0.12785055
-1.249493 0.91896915 1.2145185 0.6547959 0.53014916 -0.680004 0.31152233 0.23189534
0.64155227 0.13008404 -0.9342876 -2.3099487 0.9572918 0.23459454 -0.28650126 0.047933538
-0.1260582 -0.5099763 0.43226135 -0.405563 1.7557046 0.17904289 -1.344684 0.18288854
0.598965 -1.0494642 1.8891118 1.0512729 -0.54605615 -0.7293325 0.58233875 0.5679533
0.9999816 -0.51320875 -0.32934284 -0.9499554 0.61323404 0.61320204 0.42511398 -0.47083613
-0.33472022 0.14054954 -0.14199859 0.32039735 0.63235736 0.64849365 -0.22611201 -1.3239591
00000000: 68d2 193e 0c7d 9abf ab9d 073f 49cb 963f
00000010: 0cfc 8a3f cd9d c23e 68cf f33e 1776 a6bf
00000020: 825e 84bf 8ae1 7f3f 2b7e e7be 3eaf 813f
00000030: 9abc 153f 0694 efbe 30dd babf b074 803e
00000040: 94e8 653f cd5b 5abf a3fc 6e3f 5216 a03f
00000050: 555c c83d 6a8f c83e ac37 e2bd 1c96 cf3d
00000060: 61c6 9cbb 515a 553f 38d6 973f c120 8abe
00000070: 102a bcbf 2d60 293f c6cb 6a3e 8310 84bf
00000080: 93c5 3f3e 25b4 893c a70b 23bf 9956 d33b
00000090: 08d1 f43e 71f2 453e 82e5 50bf c8d5 7fbe
000000a0: 1a7c bbbe 63df c53d 214f cebf c766 37bf
000000b0: 6438 163f 0956 363f f7c2 a1bd 2a01 d13d
000000c0: c027 cfbc 3f42 8b3f 7489 eb3d d893 af3f
000000d0: c1e7 103f b2df dd3e 0ea0 9d3e 05fb b13f
000000e0: 30b6 fd3d 238c abbf d09b c7be 73e8 1c3e
000000f0: 823c b3bf 18eb 1ebf f78b 18bf 4dd6 c63e
00000100: 18aa 783e dc75 adbe c337 313f f1c6 cb3f
00000110: 650e 8bbf cccc 92bd 0586 3a3e 6b63 5a3f
00000120: 837e 773e bb9f d63d b36b 683f 3a3c a63e
00000130: 348a f93e a747 223e e9db ad3e 36ef 693f
00000140: 44d9 4d3f 7f5d 4cbf 7420 843f f65e 133f
00000150: 59af 563e 6738 6c3f ea17 43be 1229 4a3f
00000160: 1252 1abf b90f 09bf 021b 373f f657 e93e
00000170: 9334 3fbf c4b0 123f 6842 be3e 937b 41bf
00000180: 51d1 b83e 1155 853f 573e 173e 5a79 b8bd
00000190: 3e1f 8f3e 435c ce3e 159b 323e f1a9 34be
000001a0: 3bb5 53be e6b7 f3be 2450 e9be b457 1ebf
000001b0: b697 8cbd f2f7 573d cd51 6a3e e52d 06bf
000001c0: 540c fc3d ea95 523f c97d 263f 791b 97bf
000001d0: 817c c9be 5e16 053f 9933 7abf 8f55 00be
000001e0: 4c43 b9be e452 ee3e 41ad 5d3f 249e 00bf
000001f0: 70d2 943f 7949 2fbf b231 823e 195b 87bf
00000200: e5aa 5ebf 78d8 94be 53ca 07bf 8382 4d3f
00000210: c4bf b4bf 27a2 e73e ecf7 423f 7376 26be
00000220: 0660 2fbf 8aab d9bd baf3 39bf 74ac ed3e
00000230: 1d21 96bf f8d8 193f 6804 88bd 7454 9ebe
00000240: 34cc 32bd 2152 803d 80b9 493f f1d6 5cbe
00000250: 7f0e 07bf 4fee 99be c7b9 393d 4e57 06bf
00000260: 7874 ffbe 4472 db3e be35 70bf d1c5 b3be
00000270: 30c6 6bbf 968c 6a3f e3bb 4c3f 79fd ee3e
00000280: 8bfa b6bc b2cd 3e3f 6bff a0bf 9b76 993e
00000290: 2749 f1be c5af c3bd 0218 bebe 2e67 3c3d
000002a0: 17ed febf 62c0 873e dd9e 0cbe 38ba 98bf
000002b0: 89e9 153e 9073 5b3e 5fe7 053e 5345 e2be
000002c0: a41b a13c f3a0 6c3f da7c 0fbf d9c5 0fbf
000002d0: ac6c edbe b1ae 5cbf aab3 a7bf 2bd6 a5be
000002e0: f72b 6a3e 5abb 92bf 8a58 cebe bf17 53bf
000002f0: de12 803e b524 6c3c 4ac5 873b 01f9 45be
00000300: 5aab 6dbe 6420 1d3c d4ca e0be 7a5b a3bd
00000310: 8df7 263e d3b6 cebe 79eb cc3e 71bf c33d
00000320: bd20 bdbc 6093 b6be 2f2f ea3e 7238 bfbf
00000330: 4622 3b3f f10b 483e 5885 9fbe 41eb 02be
00000340: 63ef 9fbf 9041 6b3f 5875 9b3f b4a0 273f
00000350: dbb7 073f be14 2ebf db7f 9f3e f975 6d3e
00000360: c53c 243f c034 053e 792d 6fbf 33d6 13c0
00000370: 1311 753f 8d39 703e 4bb0 92be f555 443d
00000380: 6715 01be cf8d 02bf 5c51 dd3e f4a5 cfbe
00000390: eeba e03f 0557 373e 9b1e acbf 2247 3b3e
000003a0: c555 193f d854 86bf 6ace f13f 1c90 863f
000003b0: 56ca 0bbf 89b5 3abf 2714 153f 6365 113f
000003c0: cbfe 7f3f a661 03bf a09f a8be 4730 73bf
000003d0: e8fc 1c3f cffa 1c3f 8aa8 d93e 6f11 f1be
000003e0: 7360 abbe 38ec 0f3e 1468 11be 1f0b a43e
000003f0: 2ce2 213f ae03 263f e889 67be 7e77 a9bf

fc2.bias f4 [10]
-12.195151 12.2137575 2.4370947 1.5271047 1.0032792 7.037257 -5.1300735 7.080387
-9.952166 -3.9063556
00000000: 571f 43c1 8d6b 4341 5cf9 1b40 2b78 c33f
00000010: 746b 803f 3631 e140 9029 a4c0 8892 e240
00000020: 123c 1fc1 bb01 7ac0
