models/MNIST28x28_coh_N[200].pth (torch, 636515 bytes, 3 tensors)

fcs.0.weight f4 [200, 784]
000000 51 b8 d0 bc f5 cf 8f 3d d7 ae 14 bd a3 41 14 bd
       -0.025478514 0.070220865 -0.036299553 -0.03619541
000010 99 f0 20 bb 55 70 09 3d 8c e0 11 3d 7b 05 ac 3d
       -0.002455747 0.033554394 0.035614535 0.08399483
000020 dc f6 69 bd dc 25 71 3d 80 d7 75 bd 27 75 62 bd
       -0.05712019 0.058873996 -0.06001997 -0.055287506
000030 70 98 e7 bc 02 06 3b bd 43 99 95 bd 56 73 96 bd
       -0.02827093 -0.045660026 -0.07304623 -0.07346217
000040 d7 1d 49 3d 41 53 a3 3d 22 04 be 3d a7 76 02 bd
       0.049100723 0.07974864 0.09278132 -0.031851437
000050 50 f9 8d bd 2a 07 23 bd b6 09 cd bb df 7a b2 3c
       -0.06932318 -0.039801754 -0.006257261 0.021787105
000060 1b cc 3a 3d 38 e4 a3 3d 4b 43 42 3d a4 02 64 ba
       0.045604806 0.08002514 0.047427457 -0.0008697903
000070 d9 2f 9b bd 6a d7 98 bd 0f 7f bc bb e3 e9 a5 bd
       -0.075774856 -0.07462962 -0.0057524513 -0.08101251
000080 85 1b 34 3d 7c 66 46 3b fe 0a 9c bc 42 23 39 3d
       0.043971557 0.0030273488 -0.01904821 0.04519964
000090 72 31 cc bb ae 47 83 3d 66 4c e9 3d 46 ac 84 3d
       -0.0062314803 0.06410156 0.11391525 0.06478171
0000a0 9f 7a a1 3b f0 74 cb 3b 09 01 a1 3c 10 6c ac 3b
       0.0049279477 0.0062090084 0.019653814 0.0052619055
0000b0 28 5b de bc 04 e1 0f be 1c 16 d1 bd d8 41 94 bd
       -0.027143076 -0.1405068 -0.10209295 -0.07239121
0000c0 c9 cc bd bc 1c 2b 1a bc 0d dd b0 3c d2 e5 e6 bc
       -0.023168938 -0.009409692 0.02158978 -0.028185759
0000d0 70 9c e8 3c 19 ec 75 bc 97 e4 06 b9 76 09 68 3d
       0.028394908 -0.015009903 -0.00012864392 0.056649648
0000e0 e6 55 3d 3c 69 7f ec 3c 60 a8 34 bd 7b 19 6d bc
       0.011556124 0.028869348 -0.044105887 -0.014471407
0000f0 cb 7f 88 3d 4c d9 8c bd 74 d9 df 3c 89 29 10 3e
       0.066649996 -0.068773836 0.02732537 0.14078344
000100 01 ca 0d 3c 3b fa 33 3e 8f a2 3f 3e 16 b8 3c 3e
       0.0086541185 0.17575924 0.18714355 0.18429598
000110 69 69 c4 3d c0 72 92 3c 0d 98 8c 3d 30 ba ab 3d
       0.09590418 0.017876983 0.06864939 0.08385122
000120 18 1c 78 3d 43 3b 35 3b ed d4 08 be bf 5e 2f be
       0.060573667 0.002765373 -0.13362475 -0.17125987
000130 1c d8 1c be f1 37 d4 bc f7 22 ae bd 6c 9d ef bc
       -0.15316814 -0.025905581 -0.08502763 -0.02924987
000140 b3 b4 81 bd c0 4c 6a 3d dc 69 26 bd bb 81 5e bd
       -0.06333294 0.0572021 -0.0406283 -0.05432294
000150 28 79 89 bc b7 56 8a bc 1c 5a ea 3d 5c 9c 43 3c
       -0.016781405 -0.016887052 0.11442968 0.011939134
000160 58 f5 0f 3d fd bd ad 3d 9b 26 0d 3d 3f 79 63 3e
       0.035146087 0.08483503 0.034460645 0.2221422
000170 da a1 0e 3e b2 47 b0 3d ee 66 10 3e d7 2a fb 3d
       0.13928929 0.08607425 0.14101765 0.122640304
000180 87 81 e8 3c 7c 96 af 3d 44 32 d7 3a af 29 0e be
       0.028382076 0.085736245 0.0016418179 -0.13883089
000190 01 c8 bf bd 3f c9 79 3b a0 c9 dd bd e9 d2 a2 3c
       -0.093643196 0.0038114337 -0.108294725 0.01987596
0001a0 a4 a4 dd 3c 1f c1 dd bd 6f bd 9a bc 85 88 6b 3c
       0.027056046 -0.108278506 -0.018889157 0.0143758105
0001b0 e9 2c d3 3d 0b e2 a7 3c 28 24 d3 3d 80 d5 05 bd
       0.103113 0.020493528 0.10309631 -0.032674313
0001c0 d9 0f a6 3d 28 65 d0 3c 77 b4 b3 3d 06 79 ac bd
       0.081084915 0.02543886 0.08774655 -0.08421521
0001d0 a0 9d 2b 3b 39 53 55 3d 94 5b 80 3e 73 a8 f0 3e
       0.002618648 0.05208132 0.2506987 0.47003517
0001e0 d9 66 8e 3e 53 8d c8 3d 1a 27 55 3d 9e 04 82 3d
       0.27812842 0.097925805 0.052039243 0.06348537
0001f0 ed 2e 04 3e 87 8b df 3d 26 5a 55 bd a2 d0 6e bd
       0.12908526 0.109152846 -0.052087925 -0.058304437
000200 21 a5 86 3d 6e bf 36 bc 60 49 8d bd 85 43 a8 bd
       0.065744646 -0.011154039 -0.06898761 -0.08216003
000210 04 f2 96 3d 9b 0e 82 bd fe b4 13 bd 49 e5 a5 3d
       0.073703796 -0.06350442 -0.03606128 0.08100373
000220 2d 98 31 3e 3a 2e 0a 3e c4 4c eb 3d 06 c0 30 3d
       0.17343207 0.13494197 0.11489251 0.043151878
000230 e8 ac 9d 3d 4c 11 44 3c 7f 59 e9 3d 35 09 d5 3d
       0.07698995 0.0119670145 0.11394023 0.10402147
000240 73 94 0b 3c 54 2e d9 3b 72 6c a7 3e 25 d1 bb 3e
       0.00851928 0.006627837 0.32699925 0.36683002
000250 06 b1 85 3e 21 5b 20 3e 1c cb 72 bc 8e 69 cc bd
       0.2611162 0.15659763 -0.014818933 -0.099810705
000260 01 46 2f bb 9b 09 ce 3c 2e 57 f4 3d cc a6 e7 3d
       -0.0026744606 0.025151065 0.11930691 0.11311111
000270 17 89 0a bc 86 8b 34 bb 34 6a e6 bd 47 6e 82 3c
       -0.008455536 -0.0027548983 -0.112507254 0.015921725
000280 2f e2 e2 bc c4 c7 a5 bd 84 5b 1c be 10 36 d1 3d
       -0.027695743 -0.08094743 -0.15269285 0.1021539
000290 08 fe b2 3d c5 d7 7c 3d ce 75 a5 bc 2e 5d a2 3d
       0.08739859 0.06172921 -0.020197775 0.07927929
0002a0 b2 a5 9f 3c ac a3 bc bc b4 43 ce 3d 16 98 e7 3d
       0.01948819 -0.023027264 0.10071507 0.11308305
0002b0 c1 6f 5c bd 49 a7 b0 3d 62 40 3e 3e 80 60 c5 bc
       -0.053817514 0.08625657 0.18579248 -0.024093866
0002c0 7c e0 0a be 1b ac 0a 3d ac db 18 3c 9d e1 a5 3d
       -0.13562196 0.03385554 0.009329718 0.08099673
0002d0 94 15 3b 3c e0 5f ef bc d9 02 28 3d ea 2e 5e 3c
       0.011418719 -0.029220521 0.04101834 0.01356099
0002e0 de 05 23 bd ba ef f8 3c f4 31 9e bd 33 66 52 3d
       -0.039800517 0.030387748 -0.077243716 0.051366996
0002f0 c2 aa a8 bc e4 bc fd bd 1c 4d 23 bd f6 a1 a8 3d
       -0.020589236 -0.12389544 -0.03986846 0.082340166
000300 1f 6e 81 3c 25 14 21 bd b6 74 8d 3a 13 42 5e bc
       0.01579958 -0.039325852 0.0010792229 -0.013565558
000310 df e5 38 3c 65 85 84 3d f4 f4 08 3e 2c 5a 46 3e
       0.011285274 0.064707555 0.13374692 0.19370335
000320 fb be 98 3d cf 77 27 3e ec d5 c2 3d 09 9f f3 bd
       0.07458302 0.16354297 0.095134586 -0.11895568
000330 36 99 9f bd 34 3a 93 bd 9a 7b ad bd 12 77 b0 bc
       -0.077928945 -0.07188836 -0.08470841 -0.021541152
000340 fd 99 52 be 50 48 b9 bd 58 ab 03 3d 0a 15 50 3c
       -0.20566554 -0.09046996 0.032145828 0.012700329
000350 fe e7 97 3c 53 23 90 3d 82 70 2e 3d 30 84 e4 bd
       0.01854324 0.070379876 0.042587765 -0.11158025
000360 66 94 13 be d7 ee df bd f1 06 03 3e 75 29 f1 3c
       -0.14412078 -0.10934227 0.12795617 0.029438714
000370 09 9f 17 bd 99 b2 86 bd 0f 3a 9c 3c ae 07 03 3d
       -0.037016902 -0.065770335 0.019070653 0.031989746
000380 8a 0d b8 3d ff 09 3c 3d c8 95 4e 3d 6a c1 93 3e
       0.08986957 0.04590797 0.05043581 0.288585
000390 46 d4 71 3e 86 3b bf bd 6e 36 0b be d1 63 5b be
       0.23616132 -0.09337525 -0.13594982 -0.21424796
0003a0 1c 68 38 3c 69 b0 f2 3c d7 10 ef 3c 33 38 5e 3d
       0.01125529 0.029625135 0.029182835 0.054252815
0003b0 4e 41 e0 3b f1 d4 09 3b bd 27 f3 bc b9 eb 2d be
       0.0068437224 0.0021031464 -0.029682035 -0.16984452
0003c0 f5 4b 80 3e 95 0b b4 bd 64 39 b3 3d a1 d3 33 be
       0.2505795 -0.087912716 0.08751181 -0.17561199
0003d0 ac 2e 0f be 2c f5 aa bc 1b 3e cd 3d 5c 6a ed 3c
       -0.13982648 -0.02086886 0.10021611 0.02898138
0003e0 0c de 08 3d d4 d2 c2 bc 40 8d 0f bc 4c 05 e1 3c
       0.033414885 -0.023782171 -0.008761704 0.027468346
0003f0 c6 8f 69 3d 90 95 b4 3d 49 ef 6b 3d 88 22 a6 3e
       0.05702188 0.08817589 0.057601247 0.3244822

last_fc.weight f4 [10, 200]
000000 c3 10 1e 3f 93 0d 93 be 27 8e ae be a2 cb 19 bf
       0.61744326 -0.28721294 -0.3409283 -0.60076344
000010 50 bd 70 3e 38 1b 47 3e 9b 1a b8 be 6c c2 ea be
       0.23509717 0.19443977 -0.35957798 -0.45851457
000020 53 2d e7 3e e6 46 7e 3e 82 65 8b 3e 9c aa 96 be
       0.45151767 0.24831733 0.27225882 -0.2942704
000030 da a9 03 bf c0 2a 0b 3e f6 9c 68 3e f5 76 36 bd
       -0.5143105 0.13590527 0.22716126 -0.04454704
000040 0b 27 0d 3d 1d 80 02 bf 4d 71 27 bf d1 3f e9 be
       0.034461062 -0.50976735 -0.6540726 -0.455565
000050 ab 2f c0 3d 3f d3 80 bd 78 c0 44 3e 64 3b 95 3f
       0.09384092 -0.06290292 0.19214046 1.165875
000060 9a ab dc be 09 46 cc 3d 87 d9 95 3d 27 60 93 3d
       -0.43099672 0.09974296 0.07316881 0.07196074
000070 c9 7b fb be 6d 6c 7a 3d a9 53 14 3e cd 09 d8 3d
       -0.49117878 0.06113856 0.14485039 0.10548744
000080 d5 c4 e4 bd 48 91 6a 3f 1c 45 b7 3e ea 27 2e 3d
       -0.11170355 0.9162793 0.35794914 0.042518534
000090 99 2e 53 bf 95 f4 5d bf 03 32 04 bf 06 ff 1c bf
       -0.8249298 -0.8670133 -0.5163881 -0.61326635
0000a0 45 d2 5d bf 1a 61 94 3e 27 bd 02 bf 0d 80 ba 3f
       -0.8664897 0.28980333 -0.51069874 1.4570328
0000b0 1f 55 ae 3e 6c cd 12 bc 18 9b a8 be 31 1f a6 3e
       0.34049317 -0.008960109 -0.32930827 0.32445672
0000c0 08 d9 93 be 39 67 2b be 17 df d2 be 6e d5 18 be
       -0.2887652 -0.16738595 -0.4118583 -0.14925167
0000d0 a8 a7 91 3e fd a5 05 3f df 60 93 3e 44 7d 2a bf
       0.28448224 0.52206403 0.28784844 -0.6659739
0000e0 0f d2 91 3e da 85 63 3e 37 5a 05 bf 95 e2 13 3f
       0.28480574 0.22219029 -0.5209078 0.5776761
0000f0 4c 2c f8 be 87 01 81 bf cb f8 dd bd 4a 70 ea bd
       -0.48471296 -1.0078591 -0.10838469 -0.11447199
000100 ca 93 9c be ae 0d a8 3f bd 1a 80 3e 83 6a 58 bf
       -0.30581504 1.3129175 0.250204 -0.84537524
000110 00 b6 8d 3f d1 24 b5 bd b9 06 e8 be 8b 22 57 bf
       1.1071167 -0.08844913 -0.4531763 -0.84037083
000120 f4 0d 2e bf ad 12 20 3f 0f f5 26 3f 05 2a 20 be
       -0.6799004 0.62528497 0.6521768 -0.15641029
000130 50 57 28 bf 5a ae fb 3e 8b a3 01 bf 4f 10 7b 3d
       -0.6575823 0.49156457 -0.5064017 0.06129485
000140 ee c9 69 3c 09 4d a8 3e 51 d2 35 3e b6 87 a8 3e
       0.014269335 0.32871273 0.1775601 0.3291604
000150 43 c9 a0 be c5 8e 1b 3f 3a 38 7c bf 7f fd aa be
       -0.3140355 0.60764724 -0.98523295 -0.33396527
000160 59 ef ab 3e 27 e4 14 be ac f3 f9 3e b9 f6 32 3f
       0.33581045 -0.14540158 0.4881872 0.6990772
000170 1c 2e 6b 3f 75 cb b0 be 88 06 f6 be 28 b3 2b bf
       0.9186723 -0.34530225 -0.48051858 -0.67070246
000180 48 47 0d 3f c3 fa 37 bf a2 fc 16 3f 1a 58 3b bf
       0.5518689 -0.71867007 0.5897924 -0.7318131
000190 14 d6 31 3f d0 db dc 3e df 8d 54 3f 6f 0b 09 3d
       0.6946728 0.43136454 0.8302898 0.03345817
0001a0 b7 52 05 3f 0b 69 55 3f bf 55 91 be c0 1e cc 3e
       0.5207934 0.8336341 -0.28385732 0.3986721
0001b0 8c 6c 04 be 90 c4 fb 3e 1f 56 61 3e 6f bb 1b 3e
       -0.12932032 0.49173403 0.22005509 0.15208219
0001c0 e1 2c 47 bf 42 29 17 3e 13 52 27 be 19 d4 ca 3d
       -0.77802855 0.14761832 -0.16339903 0.09903736
0001d0 af be 86 be 1e 5e b4 3e b5 67 8d be f5 4f da bc
       -0.26317355 0.35228056 -0.27618185 -0.026649455
0001e0 a0 9f 39 be 9f 54 ae 3d cf 81 1e bc 79 dc 23 3f
       -0.18127298 0.08512234 -0.0096745035 0.6400829
0001f0 7a a2 ea 3e ad 42 c6 3e 38 07 68 bf ee 78 2b 3e
       0.45827085 0.38722745 -0.90636015 0.1674535
000200 27 67 16 3f 7c 7f a3 be c7 80 2e bf b8 f5 48 be
       0.5875115 -0.319332 -0.6816525 -0.19624984
000210 4f d4 85 bd 9b 46 c3 3e af 51 d4 3e fb 51 a0 3e
       -0.06534635 0.38139805 0.4146857 0.31312546
000220 ef 89 28 3f 81 f0 e2 3e ea ee 94 bf 1e 1c ed 3e
       0.6583547 0.44324115 -1.1635411 0.46310514
000230 69 74 fc be 0b 5b 80 3f 60 6b 9e be 50 9b 0f 3e
       -0.49307564 1.0027784 -0.30941296 0.14024091
000240 d4 59 bb be 29 4b 30 3f e4 a0 69 3e 55 c1 f4 be
       -0.3659197 0.68864685 0.22815281 -0.4780375
000250 45 0f df 3e 7f b9 b1 3e 53 c4 e6 3e 43 d8 a4 be
       0.43566337 0.34711835 0.45071658 -0.32196245
000260 d2 39 8b be 35 5c 52 3f 9e 0e 09 bf d4 87 2a bf
       -0.2719255 0.82171947 -0.5353793 -0.6661351
000270 01 4a 1d bf 75 6e a6 3e 09 b5 03 be 24 1e 5e 3f
       -0.61441046 0.32506147 -0.12862028 0.8676474
000280 5b cd 2c 3f c4 5b ad be f9 7b 99 3f 70 20 8f 3e
       0.6750085 -0.33859074 1.1990958 0.27954435
000290 43 71 ac be c2 03 d8 3b 70 b9 08 3f 51 2f 6d bf
       -0.33680162 0.006592245 0.53407955 -0.92650324
0002a0 84 69 35 bd 79 0a 75 be e3 b4 54 bf 11 7d d0 be
       -0.04429008 -0.23929776 -0.8308851 -0.40720418
0002b0 05 9a 72 be 8f 51 7f 3f cc 5b 4a bf 99 1f 1e bf
       -0.23691566 0.99733824 -0.7904632 -0.61766964
0002c0 60 e9 90 be 15 86 a0 be c6 ea dd 3e 27 d8 71 3f
       -0.2830305 -0.31352296 0.4334318 0.9447045
0002d0 ec f1 b9 3d 26 23 3f 3e cb 30 04 bf 45 bd 18 bf
       0.09079346 0.18665752 -0.5163695 -0.596638
0002e0 59 12 94 3e 2f 8b 08 3f 8b 50 1d 3f 60 0d 67 be
       0.28920248 0.5333738 0.61451024 -0.22563696
0002f0 12 58 19 3e 3e 8c 69 bf fe b8 97 bd 44 b8 91 3e
       0.14975002 -0.9122962 -0.07408331 0.28460896
000300 3f bd c7 be 5d 1c 1b 3f 2a 09 0a bf 8b f1 ac 3e
       -0.3901157 0.60590154 -0.53920233 0.33778033
000310 ad 19 8d 3d 72 93 c8 3e 51 36 9e 3e 91 d0 5a 3f
       0.06889663 0.39174992 0.30900815 0.854745
000320 f8 a9 45 bf 0e be 6e be 22 59 33 be 1c f9 12 bd
       -0.77212477 -0.23314688 -0.1751447 -0.0358821
000330 b2 5e d2 be 5d 1a 51 bf 6d 0b 58 3e c8 29 37 3f
       -0.41087872 -0.8168085 0.21098109 0.7154813
000340 e0 d5 f6 bd e4 71 1c bf e1 72 95 3e 18 f8 18 be
       -0.12052512 -0.61111283 0.29189208 -0.1493839
000350 66 18 6e 3e 13 79 e1 3e ee 80 76 bd a8 b5 32 bf
       0.23251495 0.44037685 -0.06018155 -0.69808435
000360 e1 84 23 3e 65 cf a0 be ae 3e a4 bd 07 49 7b 3f
       0.15968658 -0.3140823 -0.08019768 0.98158306
000370 ac aa 09 3f 63 52 66 bf 1e 63 33 3f 37 3f 86 3c
       0.5377605 -0.8996946 0.70073116 0.016387565
000380 fd 6e 14 be 30 16 27 bd 4a 51 42 3f 92 0f 30 bf
       -0.14495464 -0.040792644 0.7590529 -0.6877376
000390 39 48 64 bf 62 65 12 3f 2e d1 ff 3e 59 06 7f 3e
       -0.89172703 0.5718595 0.4996428 0.24904765
0003a0 7b 4d 11 bf 27 80 aa be bd 9e d3 3e 0a 1a 12 bf
       -0.5675885 -0.33300897 0.41332045 -0.5707098
0003b0 8c b1 1e bf 12 84 70 3f 8e d3 b0 be ce 60 a3 bd
       -0.61989665 0.93951523 -0.34536403 -0.079774484
0003c0 41 d7 1b bf 4a db aa 3e c2 6a 37 bf 98 4c d7 be
       -0.60875326 0.3337043 -0.71647274 -0.42050624
0003d0 c2 43 d4 3e ce 1e a2 be c1 27 df 3e a9 1c 8f be
       0.41457945 -0.31664127 0.43585017 -0.27951553
0003e0 fb f4 19 bf a5 32 2e be 1e 6e 73 be 18 c9 ec 3e
       -0.60139436 -0.17011507 -0.23772475 0.46247172
0003f0 06 df 48 be 2d ad 28 bf b5 bd 28 3e 85 f3 65 3e
       -0.19616327 -0.65889245 0.16478617 0.22456177

last_fc.bias f4 [10]
000000 cd 25 8c c0 0f 50 09 40 2a 38 c1 3e 91 54 0b bd
       -4.3796144 2.1455114 0.37738162 -0.034016196
000010 2e 2c 18 c0 10 b1 9b 40 eb 04 4d bf 24 3d 89 3f
       -2.3776965 4.865364 -0.8008563 1.0721784
000020 91 f1 fd bf 61 f5 a4 3f
       -1.9839345 1.2887384
