models/MNIST28x28_coh_N[50].pth (torch, 160163 bytes, 3 tensors)

fcs.0.weight f4 [50, 784]
0	0x3d202623	0.03909887
1	0x3cd65e97	0.02616815
2	0x391ffb51	0.00015257044
3	0xbd36d08e	-0.044632487
4	0xbd0f6e23	-0.035017144
5	0xbd2cc1fd	-0.04217719
6	0xbd2a91c1	-0.041642908
7	0xbdea6305	-0.11444668
8	0xbd8346d0	-0.06409991
9	0xbe38ba5f	-0.18039845
10	0xbe0e3e52	-0.13890961
11	0xbdf55b7b	-0.11980339
12	0xbdcb59d2	-0.09929241
13	0xbddb70fa	-0.10714908
14	0x3b4baef3	0.003107962
15	0x3c34a2de	0.011025159
16	0x3d6a08fe	0.057137482
17	0xbd2ac7f3	-0.041694593
18	0xbde04ee6	-0.10952549
19	0xbd3d5574	-0.046224073
20	0xbdb30028	-0.08740264
21	0x3bf5fe4d	0.0075071217
22	0xbc7a1a10	-0.015265003
23	0xbcb960e1	-0.022629203
24	0x3cefbdbf	0.029265283
25	0x3c141ed2	0.009040551
26	0xbcae4d33	-0.021277046
27	0x3d47e14b	0.04879884
28	0x3d4aa987	0.04947808
29	0x3d168039	0.036743376
30	0xbd7ec82b	-0.062202614
31	0xbd97d5cb	-0.07413825
32	0xbc05ef1c	-0.008174684
33	0xbcbf0399	-0.023317145
34	0xbca6e4aa	-0.020372707
35	0xbd96b304	-0.07358363
36	0x3dc12f28	0.094328225
37	0x3df1f551	0.118143685
38	0x3c1e9839	0.009679847
39	0xbc901af5	-0.01759098
40	0x3d892008	0.066955626
41	0x3de7aa6f	0.113118045
42	0x3ddc3a57	0.10753315
43	0x3d94a744	0.07258466
44	0xbc8b1bba	-0.016980994
45	0xbd12f5db	-0.035878997
46	0xbd7df15d	-0.06199776
47	0xbd3087a2	-0.0430981
48	0xbc8b161d	-0.016978318
49	0xbd08a4f4	-0.033360437
50	0x3cb861d0	0.022507578
51	0x3bf35851	0.0074262996
52	0x3d9c4164	0.0762966
53	0x3d12b07e	0.035812847
54	0xbce335ff	-0.027735708
55	0xbca8aab2	-0.020589206
56	0xbd8b05be	-0.067882046
57	0xbc395a2d	-0.0113130035
58	0x3d308d3f	0.043103453
59	0x3c25e378	0.010125034
60	0x3d29a405	0.041416187
61	0x3dcfbf85	0.10143951
62	0x3db24a80	0.08705616
63	0x3d91aa11	0.07112516
64	0x3ddfb58b	0.109232984
65	0x3d99b06c	0.07504353
66	0x3db34357	0.087530784
67	0x3dbc8758	0.09205502
68	0x3df1614c	0.11786136
69	0x3d814637	0.063122205
70	0x3da82938	0.08210987
71	0x3e003141	0.12518789
72	0x3dea077c	0.11427209
73	0x3dcaa3f6	0.09894554
74	0x3cfa6e81	0.03057027
75	0x3cad50b6	0.02115665
76	0x3b0641e9	0.0020486063
77	0xbc6dc1cd	-0.014511538
78	0xbd2a7264	-0.041612998
79	0xbbd80495	-0.006592343
80	0x3c37eb10	0.011225477
81	0x3d644c67	0.055736925
82	0x3d58d49c	0.052937135
83	0x3d39e886	0.045387767
84	0x3d3bfa85	0.04589321
85	0x3ccf3845	0.025295386
86	0xbdcbdeb8	-0.099545896
87	0xba112b22	-0.00055377383
88	0xbdec6024	-0.11541775
89	0xbdcfefce	-0.10153161
90	0xbde26c6d	-0.11055837
91	0xbd2717ba	-0.04079411
92	0xbdb4250b	-0.08796128
93	0xbdcfdb8f	-0.10149299
94	0xbe0d817f	-0.1381893
95	0xbe942733	-0.28936157
96	0xbe98d556	-0.29850262
97	0xbe92ce71	-0.28673127
98	0xbea2f101	-0.31824496
99	0xbe5db34e	-0.2165043
100	0xbdde05b8	-0.108409345
101	0xbd09dafd	-0.03365611
102	0xbd0a9bfe	-0.033840172
103	0xbd52190b	-0.051293414
104	0xbd87426e	-0.06604467
105	0xbd5627b1	-0.052283946
106	0xbc7b9394	-0.01535501
107	0xbcfc50c5	-0.030800233
108	0x3d126a62	0.035745986
109	0x3c364106	0.011123901
110	0x3de82c93	0.11336627
111	0xbd5bdca0	-0.0536772
112	0x3cea43d4	0.028596796
113	0xbca653ee	-0.020303693
114	0x3d57a57b	0.05264805
115	0xbd024b13	-0.031809878
116	0xbd8d4f71	-0.06899918
117	0x3a97f12c	0.001159226
118	0x3da64d1e	0.08120178
119	0x3d379955	0.044823963
120	0x3d0bd8b6	0.03414222
121	0x3adb28fe	0.0016720591
122	0xbd242842	-0.040077455
123	0xbd01d3ac	-0.031696007
124	0xbdb47b3a	-0.08812566
125	0xbd9cfaab	-0.076649986
126	0xbd4a38c8	-0.049370557
127	0xbdfab6af	-0.122418754
128	0xbe1fb26d	-0.15595408
129	0xbe275f52	-0.16344956
130	0xbde54c1c	-0.11196157
131	0xbca6542d	-0.02030381
132	0x3cde6c9c	0.027151398
133	0x3c7d6494	0.015465874
134	0xbc733485	-0.014844065
135	0xbd409630	-0.04701823
136	0xbcca26b8	-0.024676666
137	0xbd0719ef	-0.032983717
138	0x3d8d3d38	0.06896442
139	0x3a5653d1	0.0008175942
140	0x3d97b7e2	0.0740812
141	0x3d6d5f1b	0.057952028
142	0x3e1a0b78	0.15043437
143	0x3e289db1	0.16466404
144	0x3e488dda	0.19585362
145	0x3e2b49e8	0.16727412
146	0x3d9b1884	0.07573035
147	0x3da7d873	0.08195581
148	0x3dc3e961	0.09565998
149	0x3e381a4e	0.17978784
150	0x3e81cb7e	0.25350565
151	0x3ea5f10c	0.32410467
152	0x3e955608	0.291672
153	0x3e499700	0.19686508
154	0x3e1e3743	0.15450768
155	0x3e45f5b1	0.19332005
156	0x3e7fb408	0.2497102
157	0x3e6de12d	0.23230429
158	0x3e768cfc	0.24077219
159	0x3e67f006	0.22650155
160	0x3e1bab3e	0.15202042
161	0x3dc687b7	0.09693854
162	0x3dc1f5b0	0.09470689
163	0x3d428e89	0.047499213
164	0xbcaf614f	-0.021408705
165	0xbd9268d1	-0.071488984
166	0xbdc6422c	-0.0968059
167	0xbe48e9eb	-0.19620483
168	0xbc0928f4	-0.00837158
169	0xbdae3b4c	-0.08507404
170	0x3e41319c	0.1886658
171	0x3e1940bc	0.149661
172	0x3d8b9513	0.06815543
173	0x3df4d6f5	0.11955062
174	0x3e1498b3	0.14511375
175	0x3e0fe5a0	0.14052439
176	0x3e0f0cc0	0.13969707
177	0x3e27fbb0	0.16404605
178	0x3e5acff6	0.21368393
179	0x3e99b1c3	0.30018434
180	0x3eb095b4	0.34489214
181	0x3ed67795	0.4188811
182	0x3edc17dc	0.42986953
183	0x3ee3bde4	0.44480813
184	0x3eb7a047	0.3586447
185	0x3e9e4e70	0.30919218
186	0x3e25707d	0.16156192
187	0x3e0cb6df	0.13741635
188	0x3d3cf5e5	0.04613294
189	0x3d1a5f01	0.03768826
190	0xbc6c9796	-0.014440438
191	0x3ddee30b	0.10883149
192	0x3d103003	0.035202038
193	0xbcc738b0	-0.024319023
194	0xbcff2b14	-0.031148471
195	0xbe380ef8	-0.1797446
196	0xbd711718	-0.058859915
197	0xbe1a581e	-0.15072677
198	0x3da9105e	0.08255075
199	0x3e0fcb5e	0.14042422
200	0x3c42a4b4	0.011880089
201	0xbd819d25	-0.06328801
202	0xbd8ecd93	-0.06972804
203	0xbd8c673b	-0.06855627
204	0xbd0e51ad	-0.03474586
205	0xbd1c1386	-0.038104557
206	0xbd3e46db	-0.04645429
207	0xbcb0c1ee	-0.021576848
208	0x3c141f55	0.009040673
209	0x3cea6455	0.028612295
210	0x3d9024cc	0.070382684
211	0x3c81449d	0.015779788
212	0xbd4f6f93	-0.050643515
213	0xbe1bc780	-0.15212822
214	0xbe7c4d0e	-0.24638769
215	0xbde84e70	-0.11343086
216	0xbdb13406	-0.08652501
217	0x3c463672	0.012097942
218	0xbd85327d	-0.065037705
219	0x3db4b1be	0.08822964
220	0x3db93f11	0.09045232
221	0x3d1ae810	0.03781897
222	0xbc0ef22b	-0.0087247295
223	0xbe0c93d1	-0.13728262
224	0x37da7415	2.604168e-05
225	0xbd08a542	-0.033360727
226	0xbcc05bb2	-0.023481224
227	0xbd8ef76a	-0.06980784
228	0xbd43525c	-0.047685966
229	0xbdd60b44	-0.104513675
230	0xbe099597	-0.1343597
231	0xbde26456	-0.11054294
232	0xbd94b919	-0.07261867
233	0xbe301d87	-0.17198764
234	0xbe4beddb	-0.19914953
235	0xbe8c27c3	-0.27374086
236	0xbeca6f7f	-0.3953819
237	0xbebbf039	-0.36706713
238	0xbef312a6	-0.47475165
239	0xbeab0bfd	-0.33407584
240	0xbe9908c7	-0.2988951
241	0xbdd9ea57	-0.106404
242	0xbd632714	-0.05545719
243	0xbdba92ca	-0.09110029
244	0xbc87fe0f	-0.016600637
245	0x3c19f1e6	0.009396052
246	0xbd823a32	-0.06358756
247	0xbdc065c1	-0.09394408
248	0xbd2665c0	-0.04062438
249	0xbd8b2c13	-0.06795516
250	0x3cb16779	0.021655785
251	0xb9d36935	-0.00040323441
252	0xbd286ba5	-0.041118283
253	0xbe0bc35e	-0.13648745
254	0xbe33fe93	-0.17577581
255	0xbe3749fd	-0.17899318

last_fc.weight f4 [10, 50]
0	0xbe288d07	-0.16460048
1	0xbfb5338b	-1.4156355
2	0xbcda5d8e	-0.026655938
3	0x3f61e85c	0.8824518
4	0x3f80591f	1.0027198
5	0x3ffd91b2	1.9810088
6	0xbf72af2c	-0.9479854
7	0x3fbcdf16	1.475558
8	0xbecb063e	-0.396532
9	0xbf93eeae	-1.1557214
10	0xbf898f3f	-1.074684
11	0xbeeb9a7c	-0.460163
12	0xbf5b1665	-0.85581046
13	0xbea7df0e	-0.32787365
14	0x3f1579c8	0.5838895
15	0x3f0b82c0	0.54496384
16	0xbf42868a	-0.7598654
17	0xbf806501	-1.0030824
18	0xbf049ef9	-0.51805073
19	0x3e835b17	0.25655434
20	0xbe14cb29	-0.14530624
21	0x3f93c674	1.1544938
22	0x3fd0a713	1.6300987
23	0xbda77b9c	-0.081778735
24	0x3f874253	1.0567116
25	0xbfc7ef3b	-1.5619882
26	0x3e7126f2	0.23550013
27	0xbf56d9c4	-0.83926034
28	0x3f11c037	0.5693392
29	0x3eb7aa97	0.35872337
30	0xbe226586	-0.1585904
31	0x3fdc7b12	1.7225058
32	0xbebf12d2	-0.37319046
33	0x40014dbd	2.0203698
34	0x3f80e239	1.0069038
35	0x3f92fcb6	1.1483371
36	0xbd773642	-0.06035448
37	0xbf2e6bd7	-0.681333
38	0x3f51941c	0.8186662
39	0x3b9b7af5	0.004744882
40	0x3f189b27	0.59611744
41	0xbf02b3b1	-0.5105544
42	0xbf088688	-0.5333028
43	0xbe8411bc	-0.2579478
44	0xbf21a432	-0.6314117
45	0x3f880eaf	1.0629481
46	0xbf7575c4	-0.9588282
47	0x3f4e90a5	0.8068946
48	0x3f245b12	0.6420146
49	0x3f0e22b4	0.555217
50	0xbf66e512	-0.90193284
51	0x3f76e712	0.96446335
52	0x3f86f4bf	1.054344
53	0xbf4d6a00	-0.8023987
54	0xbfada049	-1.356454
55	0xbf017bd0	-0.5057955
56	0xbf79874b	-0.97472066
57	0x3f2fcd13	0.68672293
58	0xbfb5007e	-1.4140775
59	0x3eac9b20	0.337121
60	0xbf595d98	-0.8490844
61	0xbf6d4c32	-0.9269439
62	0xbf5d6d8b	-0.86495274
63	0xbf605464	-0.8762877
64	0xbf3f1898	-0.746469
65	0x3e0fed3a	0.14055339
66	0x3f40f3b8	0.75371885
67	0x3f773943	0.9657175
68	0x3f2f1546	0.68391836
69	0xbf962ad4	-1.173182
70	0xbf3bdf7f	-0.733879
71	0xbf31e1ac	-0.6948497
72	0xbf68d29b	-0.9094636
73	0x3f80f552	1.0074866
74	0x3f134235	0.575229
75	0xbf87b4e4	-1.0602078
76	0x3e85dda8	0.26145673
77	0x3c904055	0.0176088
78	0xbf8b2c25	-1.0872847
79	0x3ef70750	0.48247766
80	0xbbbc16ce	-0.005740023
81	0xbfa94276	-1.3223407
82	0xbe93700a	-0.28796417
83	0xbecf1f5d	-0.40453616
84	0xbed52adb	-0.4163426
85	0xbcb5c5ba	-0.02218901
86	0x3eea2df1	0.45738176
87	0xbf915934	-1.1355348
88	0x3ec7ec05	0.39047256
89	0xbee737ff	-0.4515991
90	0x3f0fe480	0.5620804
91	0x3f270c42	0.6525308
92	0x3eb84476	0.35989732
93	0x3f3e02f2	0.74223244
94	0x3e9f56b4	0.31120837
95	0xbe4fb262	-0.20282891
96	0x3f43cd82	0.76485455
97	0xbe3eb87a	-0.1862506
98	0x3e8ff5cc	0.28117216
99	0x3ec3cbd1	0.38241437
100	0x3f046b09	0.5172582
101	0xbf441bcd	-0.7660492
102	0x3f073e08	0.5282903
103	0x3f1f3d42	0.62202847
104	0x3ec961c6	0.39332408
105	0x3f94ce2b	1.1625417
106	0xbe08b56b	-0.13350455
107	0xbed8f4a9	-0.4237416
108	0xbf63e9c1	-0.89028555
109	0x3eb38a70	0.35066557
110	0x3d1ad872	0.037804075
111	0x3ea10f00	0.31456757
112	0xbe670eaa	-0.22564188
113	0x3f800ea6	1.000447
114	0x3f210b64	0.62908006
115	0xbe27ae23	-0.16375022
116	0xbcb841c5	-0.022492299
117	0x3f5b0aac	0.8556316
118	0x3e3d48a2	0.18484738
119	0x3eef19d4	0.46699393
120	0xbf1460fe	-0.579605
121	0xc004f2f8	-2.0773296
122	0xbfa7c064	-1.3105588
123	0xbf17b705	-0.5926364
124	0xbec4349a	-0.38321382
125	0xbec3f5dc	-0.38273513
126	0x3ebf073e	0.37310213
127	0xbf86d567	-1.0533875
128	0xbf057e47	-0.5214581
129	0xbf337430	-0.70099163
130	0x3e858223	0.2607585
131	0xbf2e5337	-0.68095726
132	0x3f912e4f	1.1342257
133	0x3f87f6b2	1.062216
134	0x3f045f39	0.517078
135	0x3f2e9f0a	0.68211424
136	0x3f19d042	0.600834
137	0x3d9c0979	0.07618994
138	0x3f760243	0.960972
139	0x3f6369c4	0.8883326
140	0x3d80c8a4	0.06288269
141	0x3f6df033	0.9294464
142	0xbfca1651	-1.578806
143	0xbf3cb217	-0.73709244
144	0x3f90821c	1.1289706
145	0xbf310ea1	-0.69162947
146	0x3f5707cf	0.8399629
147	0x3f663c8f	0.89936155
148	0x3f10abef	0.5651235
149	0xbee08179	-0.4384878
150	0x3f4d2f4f	0.8015031
151	0xbede6cba	-0.43442327
152	0x3ec1d2e9	0.37856224
153	0x3f69943c	0.9124181
154	0xbf1bb810	-0.6082773
155	0xbfbb117d	-1.4614712
156	0x3f04ad37	0.51826805
157	0xbf67f728	-0.90611506
158	0x3df03aed	0.11729989
159	0xbf7b304e	-0.9812058
160	0x3f933f4a	1.1503689
161	0x3f6de701	0.9293061
162	0x3fa1ab44	1.2630391
163	0xbf02ee67	-0.51145023
164	0x3ee3b2d0	0.4447236
165	0x3f0fc0c9	0.5615354
166	0x3ea152de	0.31508535
167	0xbf379357	-0.717092
168	0x3ec048aa	0.37555438
169	0x3e9db94f	0.30805442
170	0xbe7c39b2	-0.24631384
171	0xbfb9cafd	-1.4515072
172	0xbf6a4e4f	-0.9152574
173	0xbe17c4e3	-0.148212
174	0x3f1bf278	0.6091685
175	0x3f1d8d7d	0.6154402
176	0xbf01a572	-0.50643075
177	0x3f6b21d0	0.9184847
178	0xbec83c59	-0.39108542
179	0x3f15cf80	0.58519745
180	0x3f23c819	0.639772
181	0xbeb60342	-0.3554936
182	0x3f9b6125	1.2139021
183	0xbf4c0dee	-0.79708755
184	0x3f326784	0.696892
185	0x3e9b603b	0.30346856
186	0x3e839c36	0.25705117
187	0x3f537a5d	0.82608587
188	0x3f3e0cf7	0.7423853
189	0x3ec06209	0.37574795
190	0xbf9ff2b4	-1.2495942
191	0xbf113ac7	-0.5673031
192	0x3cb3a447	0.02192892
193	0xbf250f2b	-0.6447627
194	0x3e6d8b58	0.23197687
195	0xbefdc5cc	-0.4956497
196	0xbd8390ff	-0.0642414
197	0x3f2a8e7b	0.6662366
198	0xbf753a89	-0.9579244
199	0xbf7f0c98	-0.9962859
200	0xbf9261cd	-1.1436096
201	0x3f4a99b0	0.7914076
202	0x3e1a642c	0.15077275
203	0xbe9500c9	-0.29102162
204	0x3ee97391	0.45595983
205	0xbf0f8559	-0.5606285
206	0x3f68c979	0.9093242
207	0xbf062c18	-0.5241103
208	0xbf230f12	-0.6369487
209	0x3f24e79a	0.64415896
210	0x3de14ed2	0.11001362
211	0xbf94b0eb	-1.1616491
212	0x3ef72c3e	0.48275942
213	0x3f68cec4	0.909405
214	0x3f048f73	0.51781386
215	0xbf9aa7c8	-1.2082453
216	0xbd1e0e0f	-0.038587626
217	0x3f5f80e5	0.8730605
218	0x3f2e20e6	0.6801895
219	0x3f23d341	0.6399422
220	0xbf767bc8	-0.96282625
221	0x3fb6383c	1.4235911
222	0x3f82f5b5	1.0231234
223	0x3f7e8770	0.9942541
224	0xbec8f5bc	-0.3924998
225	0x3f631f58	0.887197
226	0x3ec03721	0.3754206
227	0xbf0109e8	-0.5040574
228	0xbe601770	-0.2188394
229	0xbdbf31f9	-0.093357034
230	0xbf854f91	-1.0414907
231	0x3ed96e6d	0.4246706
232	0xbef75f4e	-0.483149
233	0xbfc32aa3	-1.5247387
234	0xbfabbd65	-1.3417174
235	0xbfb23a16	-1.3923976
236	0x3f029dd4	0.51022077
237	0xbe948de2	-0.29014498
238	0xbf8b1894	-1.0866876
239	0x3f701ea2	0.9379674
240	0x3e8a6481	0.27029803
241	0xbe618509	-0.22023405
242	0x3f341770	0.7034826
243	0x3f5d2fd6	0.86401117
244	0xbd85471f	-0.06507706
245	0x3f69a0a3	0.9126074
246	0xbea22411	-0.3166814
247	0xbf4ed1d2	-0.8078891
248	0x3f6d809c	0.9277437
249	0xbf00829b	-0.5019929
250	0x3e5897d5	0.2115167
251	0xbe83ad63	-0.2571822
252	0xbf977076	-1.1831195
253	0x3e64ae88	0.22332203
254	0xbf0d3e78	-0.55173445
255	0xbfaf779d	-1.3708378

last_fc.bias f4 [10]
0	0xc0c3d1c8	-6.119358
1	0x407a297f	3.9087827
2	0xbf4f6f0c	-0.8102882
3	0x3fb81e69	1.438428
4	0x3e1d0bae	0.15336487
5	0x4083684f	4.106483
6	0xc021a4fb	-2.5256946
7	0x3fba79fe	1.4568479
8	0xbef7bde2	-0.48387057
9	0xbf29aaf4	-0.6627648
