models/MNIST28x28_coh_N[100].pth (torch, 318947 bytes, 3 tensors)

fcs.0.weight f4 [100, 784]
000000 e3 3a b2 3c e3 1d ab bc 37 fd de bc 77 1e 91 3c
       0.021756595 -0.020888275 -0.027220352 0.017714722
000010 c7 a7 82 bd 75 5d 3b bd 53 5a 44 bd 73 3d 60 bd
       -0.06379657 -0.045743424 -0.047937702 -0.054746103
000020 e4 a2 95 3d 21 05 d6 3d 65 9a c5 3d af 2c b4 3d
       0.073064595 0.10450197 0.09648589 0.08797585
000030 93 b8 e1 3d 19 78 9c 3d f8 e2 51 bd c5 f7 42 bd
       0.11021533 0.07640094 -0.051241845 -0.047599573
000040 eb 61 a6 3c bb 00 b8 3d b3 0f 0f 3e d1 47 ff 3c
       0.020310363 0.08984514 0.13970833 0.031162174
000050 27 29 bd 3d ba 53 ef 3d 90 b1 9e 3c 73 39 a1 3d
       0.09236365 0.116858914 0.019371778 0.07872286
000060 24 2f 97 bd b2 c2 18 3b 25 0b 93 3d a1 97 63 bd
       -0.07382038 0.0023309407 0.0717986 -0.055564526
000070 fd 53 58 3c db e2 9f bd 04 32 90 3d 36 93 01 3d
       0.013203618 -0.07806941 0.0704079 0.031634532
000080 de 58 38 bd a7 5b 29 3d 70 bf 11 bd 43 84 18 bd
       -0.045006625 0.041347172 -0.03558296 -0.03723551
000090 db c3 9a 3d a7 73 8c bb 18 5d 74 3d bf ff 77 3d
       0.07556888 -0.004286248 0.059659094 0.060546633
0000a0 75 91 02 3e 65 c9 0c 3e 45 e4 31 3e 7a 70 3e 3e
       0.127508 0.13748701 0.17372234 0.18597594
0000b0 fb cf 03 3e 52 fd 59 3e 0f cf 88 3e 08 f6 26 3e
       0.12872307 0.2128804 0.26720473 0.16304791
0000c0 25 9a f1 3d 56 df 8d 3d 0c 4d e2 3d 3a f9 dd 3d
       0.11796979 0.069273636 0.11049852 0.10838552
0000d0 7f c1 e7 3c e2 d5 83 bd d2 e6 0f bc 2b 10 af bc
       0.028290508 -0.06437279 -0.008783059 -0.021370014
0000e0 ea e4 3b 3d 91 59 20 bd df a5 85 3d f8 3d 6e 3c
       0.045872606 -0.039147917 0.06525778 0.014541142
0000f0 a1 c0 fc 3c 84 d1 fa 3d 3a b9 40 3e 9d 61 f3 3d
       0.030853571 0.12246993 0.18820658 0.11883853
000100 03 f6 12 3e fa 67 d8 3d 90 06 7e 3e 68 ae 9d 3e
       0.14351659 0.10566707 0.24807191 0.30797124
000110 8d f8 84 3e 7a 5b fe 3d 46 32 93 3d 68 a5 13 3e
       0.2597088 0.124197915 0.07187323 0.14418566
000120 2f 4b 8a 3e 9e 66 c2 3e e0 62 b7 3e fb 21 96 3e
       0.27010486 0.37968916 0.35817623 0.293228
000130 db 3f 3a 3e 97 c8 9e 3d ea 85 4c 3d 29 86 0b 3c
       0.18188421 0.07753103 0.049932398 0.008515873
000140 9f d3 bb bd 01 60 4f 3d e6 a6 30 bd f7 97 0b bd
       -0.09171223 0.050628666 -0.043127917 -0.03408047
000150 70 af 65 3d 55 58 95 bd 94 6d 3f bc 34 b8 c9 bd
       0.056075513 -0.072922386 -0.01168384 -0.09849587
000160 d6 81 81 bd 4b be fe 3c a9 0e 92 3d 4a ee 8e 3d
       -0.06323592 0.031096598 0.071317025 0.06979044
000170 76 07 ed 3d 2c d5 54 3e 01 21 a4 3d 8e 20 26 bc
       0.11573689 0.20784444 0.080141075 -0.010139598
000180 37 d7 b8 3d ee f2 11 3e d3 ea 3b 3e 2b 3f 8c 3e
       0.09025424 0.14252827 0.18351297 0.27391943
000190 cb 65 66 3e 60 d9 ec 3d bd 26 a1 bd 2b 66 b1 bd
       0.22499768 0.115648985 -0.07868717 -0.08662065
0001a0 e6 08 07 3d 24 f9 75 3d 00 7c eb bd 15 a8 23 be
       0.03296747 0.060052052 -0.114982605 -0.15982087
0001b0 0e c3 27 3c c2 ac 02 bd 71 eb 5c bd aa 2c 4c 3d
       0.010239376 -0.031903036 -0.053935472 0.049847282
0001c0 69 13 89 bd 57 5e 92 3c 4b 54 ae 3c 3e 55 a9 3d
       -0.06693155 0.01786725 0.021280428 0.08268212
0001d0 8e 25 5e bd 0b d2 fb bc df 60 35 bd b2 c1 82 bd
       -0.054235034 -0.030739805 -0.044281837 -0.06384601
0001e0 4d 4a d7 3b b9 6a 5e bd f2 73 99 bd 20 5e 86 bb
       0.0065701366 -0.054300997 -0.07492818 -0.004100576
0001f0 74 3c 21 3d a6 65 61 bd cb 1e f3 bd f9 fd 05 be
       0.039364293 -0.05502858 -0.11871108 -0.13085164
000200 5f af 8c bc ff 62 63 bc dc 46 f0 bb 12 f4 60 3d
       -0.017173467 -0.013878583 -0.007332666 0.054920264
000210 31 7c 4d bd 51 cd 2e 3d 07 42 4b bd d6 0c 96 3c
       -0.050167266 0.042676274 -0.049623515 0.018316668
000220 d7 66 13 3d f4 a3 cc 3c a4 a2 94 bd ba 24 b8 bd
       0.035986748 0.024980523 -0.07257584 -0.0899138
000230 f4 fc 3e 3c c3 80 38 3d d8 41 bd 3d 67 16 ae 3d
       0.011656988 0.04504467 0.09241074 0.08500367
000240 8c b3 78 ba 6f 85 85 bc b0 2c 95 bc fd 40 24 bc
       -0.0009487204 -0.016298978 -0.018209785 -0.01002526
000250 9e bd 70 bd ca 0a da 3c a8 7b 94 3d e6 0f bb 3d
       -0.058774583 0.026616473 0.07250148 0.09133892
000260 41 9f 58 3d 57 7f 0a 3d 91 68 06 3b 9d 04 63 3c
       0.05288625 0.033812847 0.0020509104 0.01385608
000270 aa 7a 01 bd 71 29 ab 3b ee a7 a7 3d 5f c3 ad 3c
       -0.031611122 0.005223446 0.08186327 0.021211324
000280 e9 25 43 3d a7 fb ed 3d bd 4c a4 bd a8 ec a1 bd
       0.047643576 0.116202645 -0.08022449 -0.07906467
000290 ad d8 ad bd 3e 8e 43 bd 60 d3 f2 bd ea d8 0b be
       -0.08488593 -0.047743075 -0.11856723 -0.13656965
0002a0 af c5 c1 3c 6c df cd bb 83 e6 c8 3c 94 05 9f 3d
       0.023653833 -0.0062827375 0.024523979 0.07764736
0002b0 6a 9f c1 3d 13 f4 81 3d 3f 05 c9 3c 9b 4e c4 3d
       0.09454234 0.063453816 0.024538634 0.09585305
0002c0 42 97 ca bb 5e 07 b2 3c 06 df b7 bc 6c 08 57 3a
       -0.006182582 0.021732029 -0.022445213 0.0008202854
0002d0 3d 14 8e 3b f7 b1 84 3d fd 85 97 3c 45 c6 02 bd
       0.0043359087 0.064792566 0.018496508 -0.031927366
0002e0 f1 03 29 3d 2d d1 2b 3c a1 c8 02 bd de 47 29 3c
       0.041263524 0.010486883 -0.031929616 0.010332076
0002f0 59 4a 38 bd c9 6f a3 3b 9b 2e 3b 39 68 81 22 3d
       -0.04499278 0.004987691 0.00017851072 0.039674193
000300 90 2f 6c bd e7 bd 0e bd a3 44 ec bc 08 9a e9 bd
       -0.057662547 -0.034849074 -0.028841322 -0.11406332
000310 13 90 bd 3d 1b f7 39 3c 47 86 d1 3d bd 31 2c 3d
       0.092559956 0.011350418 0.102306895 0.04203962
000320 5f 7c a9 bd fb 94 90 ba dc e7 00 bd 51 25 dd 3b
       -0.08275675 -0.0011030728 -0.03147112 0.006748833
000330 61 be 09 bd a4 bb 1b bc 80 c5 ea bb 5f 85 ba 3b
       -0.033628825 -0.009505186 -0.007164657 0.0056921686
000340 d4 78 c0 bc e9 a9 8b 3d dd f5 4f 3c 17 09 0a 3d
       -0.023495115 0.06819517 0.012692896 0.033700075
000350 03 a5 8f 3b 37 f0 7a 3d 14 9b bf 3c cf d1 0f 3d
       0.0043836846 0.061264243 0.023389377 0.0351122
000360 1a 73 8f 3d b2 63 b0 3d 02 d3 82 bb 54 0e 13 3c
       0.07004376 0.08612765 -0.0039924392 0.008975584
000370 89 c8 94 3c 1f 54 af 3c df 35 8e bd 39 56 36 be
       0.018162029 0.021402417 -0.06943869 -0.17806329
000380 89 46 cb bb b2 28 f6 bb b1 b4 d5 bc ae e9 eb 3d
       -0.006203477 -0.0075121755 -0.026087137 0.1151918
000390 49 63 0c 3d 73 46 cd 3d 85 0f 8c 3c 67 a3 2f bd
       0.034274373 0.10023203 0.017097244 -0.042880442
0003a0 ba 59 08 bc 01 d5 5a 3d 5b 71 ea 3b d3 0b 53 3c
       -0.008322174 0.053425793 0.0071546263 0.012881237
0003b0 18 81 d7 3c 9f 0f 9e 3d f1 1b 29 3d 8f e7 6d bc
       0.026306674 0.07717823 0.041286413 -0.01452054
0003c0 00 2e 86 bc 97 57 df 3c ad 4e 26 3d 5f 6e 9b 3d
       -0.016379356 0.027263446 0.040602375 0.07589411
0003d0 5e f3 5c bb 2d 42 5f 3c 23 dd a2 bc 5c bb ea bc
       -0.0033714394 0.013626617 -0.019880837 -0.028653793
0003e0 92 89 3f 3b b1 39 ae bc 58 d0 d6 bd 31 55 7e be
       0.0029226285 -0.021267744 -0.10488957 -0.24837185
0003f0 dc 5d 29 bb 23 95 21 3e e3 39 5c 3d 26 15 60 3c
       -0.0025843298 0.15779547 0.053766143 0.013676917

last_fc.weight f4 [10, 100]
000000 69 6d 70 3f e1 28 71 bf 8e 6c 11 be 3c 10 08 bf
       0.93916947 -0.94203 -0.14201567 -0.5314977
000010 93 c3 13 bf 50 94 44 3f 51 a5 fa 3e 06 50 55 be
       -0.577203 0.76788807 0.4895425 -0.20831308
000020 2e 58 ac be d3 e1 15 3e 43 25 9f 3e 5b 98 4a bf
       -0.33661026 0.14636926 0.31083116 -0.79138726
000030 95 c9 21 3f 50 ba 50 3e 91 4f ba 3f c0 da 31 3f
       0.63198215 0.20383573 1.4555532 0.6947441
000040 26 c0 8b be b2 4d 42 bd 66 bf 1c 3f 53 94 32 3f
       -0.27295035 -0.047437377 0.6122955 0.69757575
000050 bd 57 f7 bd cc 0e a4 be 33 53 00 3f 19 22 00 40
       -0.120772816 -0.3204254 0.5012695 2.0020812
000060 32 ee d2 be c3 09 29 3f 29 3f 08 bf 7a 6d 9a be
       -0.41197354 0.6603052 -0.53221375 -0.3016165
000070 d0 23 18 3f 21 4d 22 3f e1 07 2a bf 77 61 86 3c
       0.59429646 0.6339894 -0.6641827 0.016403897
000080 f6 0c 41 3e 18 1b 62 3f 9e 25 00 bf 09 84 48 3f
       0.188526 0.8832259 -0.500574 0.7832647
000090 51 55 fa bd f8 88 32 bf c9 6f bf 3e 3a ea 7e be
       -0.12223304 -0.6974025 0.37389973 -0.24894038
0000a0 5e 9a 48 bf 92 52 17 bf f7 b8 db 3e a7 32 a5 3f
       -0.78360546 -0.5911037 0.42914554 1.2906083
0000b0 84 ab 4c 3f 3a d5 82 bf 42 fe c2 be d6 89 5a 3e
       0.7994921 -1.0221322 -0.38084608 0.21341643
0000c0 63 fb ca be 34 e4 8b bf c8 27 ed be e9 68 c3 be
       -0.39644918 -1.0929017 -0.46319413 -0.38165978
0000d0 61 6d 3f 3d a8 b3 69 be b3 45 b6 3e a8 b2 69 be
       0.04673517 -0.2282244 0.3560005 -0.22822058
0000e0 68 92 80 3d ed 1f 1c bf c4 48 2c bf 28 2c 82 3d
       0.06277925 -0.60986215 -0.6729853 0.063560784
0000f0 68 cc 0a be 56 35 ed 3e d3 9b 4f bf f4 bd 44 bf
       -0.13554537 0.46329755 -0.81097144 -0.76852345
000100 e3 98 2c be 0b 58 24 bf a9 c7 90 3f 76 39 5e 3f
       -0.16855197 -0.6419684 1.1310931 0.8680643
000110 4c a4 88 3e 75 68 4d 3f e2 d2 c4 be f9 89 dc 3e
       0.2668785 0.80237514 -0.3844214 0.43074015
000120 3b de 80 3f 9d bb 6c 3f 6c b3 40 bf 3f a0 1a bf
       1.0067819 0.92473775 -0.75273776 -0.60400766
000130 9d 77 2c bf ec 50 17 be 06 4c aa be 0f 0e b6 3e
       -0.67370015 -0.14776963 -0.33261126 0.355576
000140 59 c8 33 3f 76 44 62 bf 73 1e 8f 3f 69 2b 07 be
       0.7022758 -0.88385713 1.1181167 -0.13200153
000150 7d 4c f3 3e 85 4d 8f bf b5 5c 33 bf 27 ce d6 3f
       0.47519293 -1.1195532 -0.70063335 1.6781663
000160 2f 47 a1 be 41 15 6d 3e fc 24 87 bd e9 10 97 be
       -0.3149962 0.23152639 -0.06598851 -0.2950509
000170 aa ab 4d 3f 8c 05 d9 3e 8c 51 15 bf d5 b3 2a bf
       0.80340064 0.42387044 -0.58327556 -0.6668065
000180 20 ca 1a be aa 58 f2 3e 86 79 b6 3f 0e b0 b5 be
       -0.15116167 0.4733327 1.4255836 -0.35485882
000190 fb 43 d6 bd c8 b6 21 3f ff c6 17 3e 18 de 23 3e
       -0.10462185 0.6316953 0.14822005 0.16002691
0001a0 ec 35 b2 be 8e 9d 96 3d 54 17 e5 bd 03 f1 50 bf
       -0.34806764 0.0735427 -0.1118609 -0.81617755
0001b0 d6 d1 63 bf 28 c9 58 3f d5 29 b8 bd 17 22 24 3f
       -0.8899206 0.8468194 -0.08992354 0.64114517
0001c0 9b 23 05 bf 7e 92 97 3e fd b7 3c 3c d6 cf 99 be
       -0.52007455 0.29603952 0.011518476 -0.3004138
0001d0 69 98 2f 3f d4 3b e3 be 89 91 40 bd 43 e1 e9 3e
       0.68591934 -0.44381583 -0.047013793 0.45679674
0001e0 0a 65 af bd a5 fe 35 bf f0 72 18 bf dd cc b9 be
       -0.085641935 -0.7109168 -0.5955038 -0.3628911
0001f0 60 b4 9b 3d 48 25 ea be 96 7f f2 bc b0 c5 e3 be
       0.07602763 -0.45731568 -0.029601853 -0.4448676
000200 78 3e 05 bf 0d f6 a3 bd a8 77 42 3f 73 01 a4 bd
       -0.52048445 -0.08005915 0.7596383 -0.08008089
000210 dc 2f 6f bf 57 59 f3 39 bd 2a 0d 3d 4d d4 13 bf
       -0.934324 0.00046415135 0.034464587 -0.5774582
000220 f0 ba 6e 3f 43 73 08 bf 81 cf 01 3f 97 e6 19 bf
       0.93253994 -0.53300875 0.5070725 -0.6011748
000230 d9 5f 67 bf a0 08 2c 3f 7e 8a 7e bf a4 77 88 bf
       -0.90380627 0.6720066 -0.9943007 -1.0661511
000240 bd b6 dc 3e 51 37 49 bf 7e 88 78 3b 11 98 0a bf
       0.43108168 -0.7860003 0.0037923153 -0.54138285
000250 53 cd 75 bf 3b b9 45 3f d3 31 3e 3e ce 44 77 3f
       -0.96016425 0.77235764 0.18573694 0.9658936
000260 5d 85 c5 be 6d 2b a5 3e ff cc ae be be 4f 15 bf
       -0.3857831 0.32259694 -0.34140775 -0.583248
000270 f4 b6 42 3f dc 1f 8c be 20 6d 0c 3f 2d e1 69 3c
       0.76060414 -0.27368057 0.5485401 0.0142748775
000280 b0 52 87 3f 58 3c 11 3e 62 7a 34 3f 49 48 cf 3e
       1.0572109 0.14183176 0.7049924 0.40484837
000290 3a a0 df be 03 71 2e 3f d0 e7 92 be 7d 39 5d 3e
       -0.4367693 0.6814119 -0.28692484 0.21603961
0002a0 59 97 1a 3f 0d 3b 0d be 4a 34 0b bf 52 ea 95 be
       0.6038719 -0.13792057 -0.5437666 -0.29280335
0002b0 70 34 2b be e2 a5 17 bf 34 3b 32 bf d9 d9 7b bf
       -0.16719222 -0.5923749 -0.69621587 -0.98379284
0002c0 f9 af 56 bf 08 c5 79 3e 76 64 17 3f 46 40 91 be
       -0.8386226 0.24391568 0.59137666 -0.2836935
0002d0 97 5a 29 bf bf 07 4b 3f c4 c5 e2 3e 4a f4 0d 3f
       -0.66153854 0.79308695 0.44291508 0.5545088
0002e0 f0 48 de be 25 00 93 3e 3e 5f ea be a4 97 ed be
       -0.43415022 0.28711048 -0.4577579 -0.46404755
0002f0 9f dd 0a 3e f5 7a e5 be f2 19 f2 3c 1f b4 45 3f
       0.13561104 -0.4482037 0.029553387 0.7722797
000300 02 82 ef 3e 13 fd ad be 92 43 2c 3f fb 17 73 bd
       0.46778876 -0.33982143 0.67290604 -0.05934904
000310 7c 65 a8 3f 81 32 8f 3e 5b 4e c7 bd 61 d2 ae bc
       1.315597 0.2796822 -0.09731742 -0.02134055
000320 fc d3 e2 3e e5 f7 28 bf 93 f4 fc 3e 47 4d 46 3f
       0.44302356 -0.6600326 0.49405345 0.77461666
000330 b3 17 2b 3f 98 4e 46 3e 0d 32 89 bf d7 14 0b 3e
       0.6683304 0.19365919 -1.0718399 0.13582169
000340 85 37 58 3e c0 21 16 3f 02 85 7d be 8f fc 36 3f
       0.21114929 0.5864525 -0.2475777 0.71479124
000350 19 d1 33 3f 7c 06 d0 be bf b1 88 bf 40 1d 25 3f
       0.7024093 -0.40629947 -1.0679244 0.64497757
000360 c4 fa cc 3e 00 fc c3 3e 5d 8d f9 3e 8f 5a a2 3e
       0.4003507 0.38278198 0.48740664 0.31709716
000370 19 bb 03 bf f0 84 da 3e 72 98 40 bf 2c 64 6a 3f
       -0.51457363 0.42679548 -0.75232613 0.915591
000380 9b 55 3e 3f 2f 87 29 3f 82 75 76 be 21 16 a9 3d
       0.74349374 0.662219 -0.24068263 0.08256174
000390 1e ba ca bd df 66 3d 3f e4 ed a1 3e 73 a1 11 3f
       -0.0989878 0.73985094 0.3162681 0.56886977
0003a0 92 cc 26 bf 98 19 fc be 44 60 1a bf 15 a6 cc bd
       -0.651559 -0.49238276 -0.6030314 -0.09992615
0003b0 5f 4d 07 bf 66 c0 ee 3e cd cb 3e 3f 9b 13 9b be
       -0.52852434 0.46631163 0.74529725 -0.30288395
0003c0 93 ea 84 bd 59 d8 d8 3e 33 0f c0 3e ca 8b 22 3e
       -0.06490054 0.4235256 0.37511596 0.15873638
0003d0 82 a5 e0 be c9 6f 39 be 52 f6 02 bf 24 ea 16 3f
       -0.43876272 -0.18109049 -0.51157105 0.5895102
0003e0 a9 92 3a bd eb cb ad bd ee 05 b7 3d b4 66 8d be
       -0.045550022 -0.0848616 0.08936678 -0.2761742
0003f0 b2 44 9b 3e 1a 88 15 be 81 e3 b3 bd 07 69 99 3e
       0.30325848 -0.146027 -0.08783627 0.29962942

last_fc.bias f4 [10]
000000 db 85 86 c0 98 2a 55 40 ff cf 07 bf 37 7a 33 3e
       -4.20384 3.3307247 -0.5305175 0.1752709
000010 5c b8 24 bf 84 3e 80 40 f8 82 24 c0 75 3f c1 3f
       -0.6434381 4.0076313 -2.5704937 1.509749
000020 4e c5 b7 bf cc 4a 81 3f
       -1.4357088 1.0100951
