models/MNIST28x28_coh_N[10].pth (torch, 33123 bytes, 3 tensors)

fcs.0.weight f4 [10, 784]
0	0xbc365a11	-0.011129872
1	0xbb18fe35	-0.0023344879
2	0xbd8dccbf	-0.06923818
3	0x3d6e0724	0.05811228
4	0x3cc4fc1c	0.024045996
5	0xbdcd2265	-0.10016326
6	0xbe22c87c	-0.15896791
7	0xbe093d47	-0.13402282
8	0xbe99d2b3	-0.30043563
9	0xbe3deb27	-0.18546735
10	0x3e167793	0.14694051
11	0x3ee3997c	0.44453037
12	0x3ef577ea	0.4794305
13	0x3e4a2446	0.197404
14	0x3dc4fc8f	0.09618484
15	0x3d999edc	0.07501003
16	0xbd3f31dc	-0.04667841
17	0xbc24d53b	-0.010060604
18	0xbeb5647e	-0.35428232
19	0xbf1a1a74	-0.60196614
20	0xbf2b2ddc	-0.6686685
21	0xbef7b76d	-0.4838213
22	0xbef7ed39	-0.48423174
23	0xbcd44e72	-0.025916312
24	0x3d7819f9	0.060571644
25	0x3da3fc0e	0.0800706
26	0xbdbd0e31	-0.092312224
27	0x3c90be2d	0.017668808
28	0xbc5de779	-0.013543957
29	0x3dabcefb	0.08389088
30	0xbd7660bf	-0.060150858
31	0x3d00bf2f	0.031432327
32	0xbe9a2f59	-0.30114248
33	0xbf07d7a0	-0.5306339
34	0xbf51b67c	-0.81919074
35	0xbf3fcaab	-0.7491862
36	0xbf5619ac	-0.8363292
37	0xbf809bd6	-1.0047557
38	0xbf91c615	-1.1388575
39	0xbf6af2aa	-0.91776526
40	0xbf35354a	-0.7078444
41	0xbe8d0983	-0.2754632
42	0xbf0a86d2	-0.5411197
43	0xbf902893	-1.1262382
44	0xbfbe5ea5	-1.4872633
45	0xbfbf712f	-1.4956416
46	0xbfbc1bf7	-1.4696034
47	0xbfcb4af0	-1.5882244
48	0xbfc945ef	-1.5724467
49	0xbfdff033	-1.7495178
50	0xbff13d9c	-1.8846927
51	0xbfc81782	-1.5632174
52	0xbf4e5ebf	-0.8061332
53	0xbeb441b1	-0.3520637
54	0xbe1c8158	-0.15283716
55	0xbdb811d1	-0.08987773
56	0x3cf8e4a4	0.030382462
57	0x3d3843d9	0.04498658
58	0xbdcf406e	-0.10119711
59	0xbe823e58	-0.2543819
60	0xbf246f02	-0.64231884
61	0xbfc76926	-1.5578964
62	0xc01a9a3f	-2.4156644
63	0xc02fdcf9	-2.747862
64	0xc02dee3c	-2.7176657
65	0xc0292079	-2.642607
66	0xc0309d86	-2.7596145
67	0xc031ed9a	-2.780127
68	0xc030815b	-2.7578952
69	0xc01e4b81	-2.4733584
70	0xbffc375f	-1.9704398
71	0xbfeac5df	-1.8341635
72	0xbfc20e20	-1.5160561
73	0xbf304dc0	-0.6886864
74	0xbf1edc11	-0.62054545
75	0xbf06b449	-0.52618843
76	0xbef11e9e	-0.47093672
77	0xbeb8c2fa	-0.36086255
78	0xbe9b8280	-0.30373
79	0xbdce7193	-0.10080256
80	0xbe68d542	-0.22737601
81	0xbebabbfc	-0.36471546
82	0xbe7f668f	-0.24941467
83	0xbe052936	-0.13004002
84	0x3c35c0eb	0.0110933585
85	0xbe02176a	-0.12704244
86	0xbe88d278	-0.26723075
87	0xbea201c5	-0.31641975
88	0xbe0792bc	-0.13239568
89	0xbc660eab	-0.014041583
90	0x3e023e3e	0.12719056
91	0xbe81d834	-0.25360262
92	0xbebd5520	-0.36979008
93	0xbed4c8be	-0.41559404
94	0xbefe68ca	-0.49689323
95	0xbee28866	-0.4424469
96	0xbed816bc	-0.42204845
97	0xbf088453	-0.5332691
98	0xbf34e9bd	-0.70669156
99	0xbf115692	-0.5677272
100	0xbecd2f9c	-0.40075386
101	0xbeae7002	-0.3406983
102	0xbe5acd22	-0.21367314
103	0xbe413ab8	-0.18870056
104	0xbe2064ef	-0.15663503
105	0xbde5294f	-0.111895196
106	0xbd320333	-0.043460082
107	0xbd3f6537	-0.046727385
108	0xbcd57a76	-0.02605937
109	0xbda429b0	-0.08015764
110	0xbe8575bb	-0.26066384
111	0xbe6231b2	-0.2208927
112	0x3d8d7985	0.06907944
113	0xbd2e2d28	-0.042523533
114	0xbe3a5f15	-0.18200333
115	0xbb191c6a	-0.0023362883
116	0x3c7bc67b	0.015367146
117	0x3bf6406c	0.007515004
118	0xbb9b8d71	-0.0047470857
119	0xbcc81e4e	-0.024428513
120	0xbd48473a	-0.048896052
121	0xbd88610d	-0.06659136
122	0xbdeffb97	-0.11717909
123	0xbe0e0bc2	-0.13871673
124	0xbe2797a3	-0.16366439
125	0xbe398232	-0.18116072
126	0xbe3d1ee3	-0.18468814
127	0xbe830ef7	-0.25597355
128	0xbe691b6a	-0.22764364
129	0xbe53ea7c	-0.20694917
130	0xbe429b1f	-0.19004487
131	0xbdd4a0b2	-0.10382213
132	0xbdd7a77b	-0.10529991
133	0xbde84acd	-0.11342392
134	0xbd9c23c6	-0.07624011
135	0xbdc70e23	-0.09719493
136	0xbd6c2a86	-0.05765774
137	0xbd01d271	-0.031694833
138	0xbdba5a62	-0.090992704
139	0xbe661927	-0.22470532
140	0x3d9680f4	0.073488146
141	0x3dadd617	0.084881
142	0x3c902a43	0.017598277
143	0x3d1c6e0e	0.038190894
144	0x3ca5d16b	0.02024146
145	0x3d46a732	0.048499294
146	0x3d11ab05	0.035563488
147	0x3a18f2a8	0.00058344984
148	0x3c2ba6cf	0.010476782
149	0x3b2f1227	0.00267137
150	0x3b2053d4	0.0024464028
151	0xbc3556a2	-0.011068018
152	0xbc0d8389	-0.008637317
153	0xbd4e3387	-0.05034211
154	0xbca61e39	-0.020278083
155	0xbd192dac	-0.03739707
156	0xbd0f705f	-0.035019275
157	0xbcb32619	-0.021868752
158	0xbd73ef6b	-0.0595545
159	0xbd6828aa	-0.056679405
160	0xbd15519c	-0.036454782
161	0xbd1e1c00	-0.03860092
162	0xbc8020b6	-0.015640598
163	0xbcfa5863	-0.030559724
164	0xbd8166fc	-0.06318471
165	0xbd481638	-0.048849314
166	0xbd32e8ae	-0.043678932
167	0xbdd6ce85	-0.10488609
168	0x3d815ea9	0.06316883
169	0x3c62268d	0.013803137
170	0x3c76d657	0.015065751
171	0x3da3cb22	0.07997729
172	0x3cc9b2c5	0.024621377
173	0x3d20a9cd	0.039224435
174	0x3cfd5b20	0.03092724
175	0x3d3a30b3	0.0454566
176	0x3d0b2aa5	0.033976216
177	0x3ce8ade5	0.028403232
178	0x3d430d81	0.0476203
179	0x3d014c33	0.03156681
180	0x3c91ab3e	0.01778185
181	0xbcb87196	-0.0225151
182	0x3c950706	0.018191826
183	0x3acff1fa	0.0015864961
184	0xbc652699	-0.013986253
185	0x3ca84ab4	0.020543434
186	0xbbf812f0	-0.007570617
187	0x3a0f5446	0.0005467575
188	0x388d1541	6.727363e-05
189	0x3d04ffc5	0.032470483
190	0x3d13b248	0.036058694
191	0x3cc10464	0.023561664
192	0x3c90472c	0.017612062
193	0xbc1390e1	-0.00900671
194	0xbc1ada02	-0.009451391
195	0xbc326197	-0.010887525
196	0x3dc84013	0.09777846
197	0x3d01353c	0.03154491
198	0xbc8a21b9	-0.016861783
199	0x3d0f95e2	0.03505505
200	0x3ccd7c10	0.025083572
201	0x3d66fcb8	0.056393355
202	0x3cc959ed	0.024579013
203	0xbc1457b5	-0.009054114
204	0x3cbdced0	0.023169905
205	0xbad2e9de	-0.0016091426
206	0x3d2f4090	0.04278618
207	0x3b32fd6a	0.002731169
208	0x3d056dc0	0.03257537
209	0x3b839176	0.004015143
210	0x3d2d9341	0.04237676
211	0xbcaed478	-0.021341547
212	0x3d0cd027	0.034378197
213	0x3cbf4519	0.023348378
214	0xbc0f824f	-0.008759095
215	0x3b864c20	0.0040984303
216	0xbcf8a12d	-0.030350292
217	0xbc743cd9	-0.014907085
218	0xbd231c38	-0.039821833
219	0xbc5201f1	-0.012817846
220	0xbccf3771	-0.025294991
221	0xbd790004	-0.06079103
222	0xbd031b98	-0.032008737
223	0xbdc91764	-0.098189145
224	0x3c89a5ac	0.016802631
225	0x3d597ce6	0.053097628
226	0x3bdfb7e9	0.0068273437
227	0x3abfed11	0.0014642795
228	0x3cff1c8c	0.031141542
229	0x3cfdbf0f	0.030974893
230	0x3cd427ce	0.025897887
231	0x3c666351	0.014061765
232	0x3d34080f	0.043952998
233	0x3d0aa3be	0.033847563
234	0x3d007674	0.031362966
235	0x3d429036	0.04750081
236	0x3bc1ea74	0.0059178416
237	0x3d318ee9	0.04334918
238	0x3ca96e07	0.020682348
239	0x3cc3aa64	0.02388496
240	0xbc872b85	-0.016500244
241	0x3c97cf93	0.018531596
242	0x3d1870b0	0.037216842
243	0xbb8319d0	-0.00400088
244	0xbb9745af	-0.004616461
245	0x3c9d9da7	0.019240214
246	0x3bce9027	0.0063038054
247	0xbacdb656	-0.0015694599
248	0x3c904ec2	0.01761568
249	0xba86d3b0	-0.0010286476
250	0xbd0b8b1e	-0.03406822
251	0xbde86b3c	-0.11348578
252	0x3d1ec1e5	0.03875913
253	0x3d070f7f	0.032973763
254	0x3ccc64b5	0.024950365
255	0x3c2bb0be	0.01047915

last_fc.weight f4 [10, 10]
0	0x40120305	2.2814343
1	0x3f9b575e	1.2136037
2	0xbfd992ad	-1.6997887
3	0xbfdd0a66	-1.7268798
4	0x40020cb1	2.0320246
5	0xbf774acd	-0.9659851
6	0x4013b7ba	2.3080888
7	0xbfcac1b2	-1.5840361
8	0x3f748ca4	0.955271
9	0x3fdfd81f	1.748783
10	0xbd857507	-0.06516462
11	0xbf34e0ca	-0.706555
12	0xc001d8a1	-2.028847
13	0x3ff3ab6c	1.9036689
14	0xbfde90ce	-1.7387941
15	0x3f9c4c34	1.2210755
16	0xc00bfd98	-2.1873531
17	0xc0033e48	-2.0506763
18	0xbff3909e	-1.9028509
19	0xbfc1b3e9	-1.5133029
20	0x3f4e00c8	0.8046994
21	0x3f70ccdb	0.94062585
22	0x3d015262	0.031572707
23	0x3fe29a40	1.7703323
24	0x3f828c74	1.0199113
25	0x3f8ccc6b	1.0999883
26	0x3fadf30c	1.3589797
27	0xbfc59603	-1.5436405
28	0x3f630b7c	0.886894
29	0xbfb42958	-1.4075117
30	0x3f4ca3e2	0.79937565
31	0xc033970c	-2.8060942
32	0x3fbd0701	1.4767762
33	0x3fa2462b	1.2677664
34	0xbf730635	-0.94931346
35	0x3f9b6946	1.2141502
36	0x3f40e7a7	0.75353473
37	0xbf162329	-0.586474
38	0x3f654b6f	0.8956823
39	0x3f7c61a1	0.9858647
40	0xc0150a61	-2.3287585
41	0x3f0eb8e8	0.55750895
42	0x3fb2009d	1.3906437
43	0xbfa79200	-1.3091431
44	0xbf732814	-0.9498303
45	0xbf4d8272	-0.8027717
46	0xbea9992a	-0.33124667
47	0x4009d887	2.1538408
48	0xbfd1dd02	-1.6395571
49	0xbf763ee8	-0.9618974
50	0x3f42f53d	0.76155454
51	0xc01f2904	-2.4868784
52	0x3f8684d2	1.0509284
53	0xbef33d47	-0.47507688
54	0x3fa4ce15	1.2875391
55	0xbfb22f74	-1.3920732
56	0xbf93231d	-1.1495091
57	0x3de38502	0.111093536
58	0xbec9fd44	-0.3945104
59	0x3f8e9d0b	1.1141676
60	0x4006272b	2.0961406
61	0x3fcbb3ed	1.5914284
62	0xbee05604	-0.43815625
63	0x3f6e3376	0.93047273
64	0x40065f0b	2.099551
65	0xbfc3a1fc	-1.5283809
66	0x3f3c54f1	0.7356711
67	0x3fa70851	1.3049413
68	0xc01f82a2	-2.4923482
69	0xbfdb312a	-1.7124379
70	0xc0445393	-3.067601
71	0x3e079dde	0.13243815
72	0xbfb46778	-1.4094076
73	0xbc205c37	-0.009787611
74	0xbfb72f56	-1.4311321
75	0x3fc5b2b1	1.5445157
76	0x3eca6fed	0.39538518
77	0xbfa32207	-1.2744759
78	0x3fa6d190	1.3032703
79	0x3fcbf421	1.5933877
80	0x3fcb3619	1.5875884
81	0x3f8ba674	1.0910172
82	0xbe853de8	-0.26023793
83	0x3fa05a56	1.2527568
84	0xbf1aa1da	-0.60403216
85	0xbf1834cc	-0.5945556
86	0xbfd71009	-1.6801769
87	0x3f0d216f	0.5512914
88	0x3ef89976	0.4855458
89	0x3f6c7baa	0.92376196
90	0xc02c27e2	-2.6899343
91	0xbf089fb4	-0.5336869
92	0x3fb9d830	1.45191
93	0xbf91ab70	-1.1380444
94	0xbf9167c1	-1.1359788
95	0x3f91fca8	1.140523
96	0xbf98e5a1	-1.1945077
97	0x3f935827	1.1511277
98	0x3f52c867	0.8233704
99	0x3f1bbbe6	0.60833585

last_fc.bias f4 [10]
0	0xc08afb79	-4.3431973
1	0x408e0a28	4.43874
2	0xc0398ee0	-2.8993454
3	0xbf95229a	-1.1651185
4	0x402d179a	2.7045655
5	0x40046686	2.0687575
6	0xc02187de	-2.5239177
7	0x3fa26e75	1.2689959
8	0xbf7fcd10	-0.99922276
9	0x3fae5065	1.3618284
