models/MNIST28x28_incoh_N300.pth (torch, 954147 bytes, 3 tensors)

fc1.weight f4 [300, 784]
0	0x00000000	0.0
1	0x3c90bc7a	0.017667998
2	0x00000000	0.0
3	0x00000000	0.0
4	0x00000000	0.0
5	0x3ca8819c	0.020569615
6	0x00000000	0.0
7	0x00000000	0.0
8	0x3c04cf6a	0.008106092
9	0x3b3ce0ee	0.0028820592
10	0x00000000	0.0
11	0x3c7af9d3	0.015318352
12	0x00000000	0.0
13	0x3c6adfc8	0.01433558
14	0x3bfa9f77	0.007648404
15	0x326b25cb	1.3687393e-08
16	0x00000000	0.0
17	0x3c885057	0.016639872
18	0x00000000	0.0
19	0x3afee84a	0.001944789
20	0x00000000	0.0
21	0x00000000	0.0
22	0x00000000	0.0
23	0x3bbe0a9c	0.0057996046
24	0x00000000	0.0
25	0x3c7d35a5	0.015454684
26	0x3b19c2ca	0.002346205
27	0x00000000	0.0
28	0x00000000	0.0
29	0x00000000	0.0
30	0x00000000	0.0
31	0x00000000	0.0
32	0x3cfbeaed	0.03075167
33	0x2bf12e65	1.7136957e-12
34	0x00000000	0.0
35	0x00000000	0.0
36	0x00000000	0.0
37	0x00000000	0.0
38	0x00000000	0.0
39	0x00000000	0.0
40	0x00000000	0.0
41	0x00000000	0.0
42	0x00000000	0.0
43	0x00000000	0.0
44	0x00000000	0.0
45	0x00000000	0.0
46	0x00000000	0.0
47	0x00000000	0.0
48	0x00000000	0.0
49	0x00000000	0.0
50	0x00000000	0.0
51	0x00000000	0.0
52	0x00000000	0.0
53	0x00000000	0.0
54	0x00000000	0.0
55	0x00000000	0.0
56	0x00000000	0.0
57	0x3c9daa5a	0.019246269
58	0x3acdb113	0.0015693031
59	0x00000000	0.0
60	0x00000000	0.0
61	0x3c58d699	0.013234758
62	0x00000000	0.0
63	0x00000000	0.0
64	0x35a9d5f7	1.2653753e-06
65	0x3efaa8e0	0.48956966
66	0x3ba5984d	0.005053556
67	0x38d8d987	0.000103402
68	0x3b5524fa	0.003252326
69	0x3b386cb8	0.0028140973
70	0x3a13f933	0.00056447386
71	0x00000000	0.0
72	0x00000000	0.0
73	0x00000000	0.0
74	0x00000000	0.0
75	0x00000000	0.0
76	0x00000000	0.0
77	0x00000000	0.0
78	0x00000000	0.0
79	0x00000000	0.0
80	0x3dd5bc9f	0.10436367
81	0x3e0240a5	0.12719972
82	0x3c0d74dc	0.0086338185
83	0x3c5f64a1	0.013634832
84	0x3c0b7a45	0.008513038
85	0x00000000	0.0
86	0x3d4f9af7	0.050684895
87	0x3c5f2fb8	0.013622217
88	0x00000000	0.0
89	0x00000000	0.0
90	0x3cde8dce	0.027167227
91	0x3e370e79	0.17876615
92	0x3f14943d	0.58038694
93	0x3a070ed3	0.000515205
94	0x39b89919	0.00035209281
95	0x39fde9b8	0.00048430054
96	0x3ae073e2	0.001712438
97	0x3a2ccb52	0.00065915764
98	0x00000000	0.0
99	0x00000000	0.0
100	0x00000000	0.0
101	0x394dd5d2	0.00019629978
102	0x396154e8	0.00021489302
103	0x391bf849	0.00014874445
104	0x38d21c08	0.000100188015
105	0x00000000	0.0
106	0x00000000	0.0
107	0x3ea2f626	0.3182842
108	0x00000000	0.0
109	0x3d659936	0.056054316
110	0x330a62d1	3.2220502e-08
111	0x00000000	0.0
112	0x3c346f2e	0.011012835
113	0x3636d046	2.7241344e-06
114	0x3e02c433	0.12770157
115	0x3d7f2113	0.0622874
116	0x37f4cdaa	2.9182836e-05
117	0x3e7fd728	0.2498442
118	0x35513a09	7.794302e-07
119	0x00000000	0.0
120	0x36f02454	7.1567865e-06
121	0x375dc49a	1.3218401e-05
122	0x00000000	0.0
123	0x39afee16	0.0003355599
124	0x3a72df01	0.00092647976
125	0x3a4ac229	0.00077346206
126	0x3a296b11	0.00064627925
127	0x3ab4daff	0.0013798176
128	0x3a714e4b	0.0009205087
129	0x3a9d206a	0.001198781
130	0x3a756cc9	0.00093622186
131	0x3a31c538	0.0006781402
132	0x3a39c5d2	0.00070866675
133	0x39301b83	0.00016794917
134	0x36a68b8d	4.9634314e-06
135	0x38fda1fc	0.00012094152
136	0x3e9b02e2	0.30275637
137	0x3653175e	3.1455052e-06
138	0x3605731c	1.9885547e-06
139	0x329ac025	1.8015337e-08
140	0x00000000	0.0
141	0x3b825513	0.003977427
142	0x3b93e66d	0.004513553
143	0x3d704ec1	0.058668856
144	0x3ea50e98	0.32237697
145	0x396ea22e	0.00022757865
146	0x395c62a4	0.00021017581
147	0x3a0eabfc	0.0005442498
148	0x3825d82e	3.95404e-05
149	0x382a06d3	4.0537514e-05
150	0x382471d0	3.9206643e-05
151	0x00000000	0.0
152	0x39cea952	0.00039417535
153	0x00000000	0.0
154	0x00000000	0.0
155	0x393dc3d3	0.00018097395
156	0x00000000	0.0
157	0x00000000	0.0
158	0x39cfd42e	0.00039640203
159	0x38aa7f0e	8.1298975e-05
160	0x38126cfb	3.491061e-05
161	0x371ad59f	9.228853e-06
162	0x00000000	0.0
163	0x00000000	0.0
164	0x38b8ee26	8.818162e-05
165	0x3ec54d28	0.38535428
166	0x00000000	0.0
167	0x33b36fcd	8.3556735e-08
168	0x00000000	0.0
169	0x3a10839f	0.0005512777
170	0x00000000	0.0
171	0x3e5943fd	0.21217342
172	0x3f2234ae	0.6336163
173	0x3e68077b	0.22659104
174	0x3ad24483	0.0016042147
175	0x3a150253	0.0005684245
176	0x391290ab	0.00013977538
177	0x00000000	0.0
178	0x00000000	0.0
179	0x00000000	0.0
180	0x00000000	0.0
181	0x00000000	0.0
182	0x00000000	0.0
183	0x00000000	0.0
184	0x00000000	0.0
185	0x00000000	0.0
186	0x00000000	0.0
187	0x00000000	0.0
188	0x00000000	0.0
189	0x00000000	0.0
190	0x39123c05	0.00013946004
191	0x395e71d6	0.00021213977
192	0x36971312	4.5023708e-06
193	0x350804a9	5.067073e-07
194	0x00000000	0.0
195	0x00000000	0.0
196	0x3bbf1bb3	0.0058321594
197	0x3d2d83e2	0.0423621
198	0x3bf63d9a	0.0075146677
199	0x3ea41220	0.32045078
200	0x3f8854d5	1.0650889
201	0x3a0aa502	0.00052888703
202	0x3a7703b3	0.00094228535
203	0x395a60cd	0.00020826161
204	0x00000000	0.0
205	0x00000000	0.0
206	0x00000000	0.0
207	0x00000000	0.0
208	0x00000000	0.0
209	0x00000000	0.0
210	0x00000000	0.0
211	0x38005787	3.0599094e-05
212	0x3849a9b3	4.808018e-05
213	0x38ce22f7	9.829358e-05
214	0x38c68616	9.466351e-05
215	0x38b06360	8.410844e-05
216	0x00000000	0.0
217	0x00000000	0.0
218	0x00000000	0.0
219	0x00000000	0.0
220	0x391a1bda	0.0001469696
221	0x3a2167d3	0.00061571336
222	0x00000000	0.0
223	0x39ba1eb8	0.00035499572
224	0x3d117138	0.035508364
225	0x3ca922a0	0.020646393
226	0x3ca0234e	0.019548085
227	0x3e785369	0.24250568
228	0x3fd94de1	1.6976892
229	0x38591095	5.1752275e-05
230	0x00000000	0.0
231	0x00000000	0.0
232	0x00000000	0.0
233	0x00000000	0.0
234	0x00000000	0.0
235	0x00000000	0.0
236	0x00000000	0.0
237	0x38006e9e	3.06206e-05
238	0x3a0dc8d8	0.0005408651
239	0x39aba5a1	0.00032739065
240	0x39089e28	0.00013028888
241	0x386c39a6	5.6320474e-05
242	0x38865d81	6.4070344e-05
243	0x3854c566	5.072858e-05
244	0x00000000	0.0
245	0x00000000	0.0
246	0x00000000	0.0
247	0x00000000	0.0
248	0x37b8bd3f	2.2022634e-05
249	0x3f144b05	0.5792697
250	0x3322d1e6	3.7909466e-08
251	0x299a8dd4	6.863577e-14
252	0x3a0ef42f	0.00054532563
253	0x3ccc8649	0.024966376
254	0x3d3df1e4	0.046373263
255	0x3ebd5334	0.3697754

fc2.weight f4 [10, 300]
0	0x3dee4c27	0.11635619
1	0x3e409152	0.18805435
2	0xbef3a333	-0.4758545
3	0x3f56d31f	0.83915895
4	0xbf3b3d5d	-0.7314051
5	0x3f0dc59c	0.5537965
6	0xbe60e47a	-0.21962157
7	0xbfb1c764	-1.3888974
8	0x3e22c8d2	0.1589692
9	0x3e8595bd	0.26090804
10	0xbf2265ce	-0.6343659
11	0x3f298ffe	0.6623534
12	0xbd161737	-0.036643233
13	0xbec220e4	-0.3791572
14	0xbf08b3bc	-0.5339925
15	0x3eb3ad0d	0.35092965
16	0x3f1d7ded	0.6152027
17	0xbf087652	-0.5330554
18	0x3ec96818	0.3933723
19	0x3e5834d4	0.21113902
20	0xbee1e6dd	-0.44121447
21	0x3e3551ab	0.17706935
22	0xbedd236e	-0.43191093
23	0x3f5152de	0.8176707
24	0x3ee2ca43	0.44294938
25	0xbe919043	-0.28430375
26	0x3dcaa8b5	0.098954596
27	0x3f348ea6	0.70530164
28	0xbe78a73a	-0.24282542
29	0x3eaf1b47	0.34200498
30	0xbf979e42	-1.1845171
31	0x3ec2dc4a	0.38058692
32	0xbdb7c7ab	-0.089736305
33	0xbe949493	-0.29019603
34	0xbedceffc	-0.43151844
35	0xbe41e141	-0.18933584
36	0xbdba7641	-0.091045864
37	0x3eb1b393	0.34707317
38	0xbf44591f	-0.7669849
39	0xbf07e492	-0.53083146
40	0x3f5114f2	0.81672585
41	0xbf080d92	-0.53145707
42	0xbd7e9cd3	-0.062161278
43	0xbf42d31c	-0.7610338
44	0x3d85c150	0.06531012
45	0xbe962e91	-0.29332402
46	0xbc0b903b	-0.008518274
47	0xbf099216	-0.53738534
48	0x3dcd8075	0.10034267
49	0x3efcf690	0.49406862
50	0xbf9b3c72	-1.2127821
51	0x3ea4e8af	0.32208773
52	0xbfc07f79	-1.5038902
53	0x3e910079	0.28320673
54	0x3e86ce8a	0.26329452
55	0x3eafa434	0.34304965
56	0xbe4d0ef6	-0.20025238
57	0x3f99dadc	1.2019916
58	0x3ed76b05	0.42073837
59	0xbf273f22	-0.6533071
60	0x3e5d18ac	0.21591443
61	0x3f989e43	1.1923298
62	0xbf2c6379	-0.67339283
63	0xbebb9c6b	-0.36642775
64	0xbf435d2e	-0.76314056
65	0x3ec7d49f	0.39029405
66	0x3ed52368	0.41628575
67	0xbe9d3be3	-0.30709752
68	0xbfaa8493	-1.3321708
69	0x3e87c24b	0.2651542
70	0x3f0275f3	0.50961226
71	0x3e236f4f	0.1596043
72	0x3f5bd53d	0.8587225
73	0x3ddd7bdf	0.10814642
74	0xbdbbcc45	-0.09169821
75	0x3eaa9b28	0.333215
76	0xbb7a8787	-0.0038227753
77	0x3e7c6ea4	0.24651581
78	0xbf129d76	-0.57271516
79	0x3da125b7	0.07868522
80	0x3e92cfdf	0.28674218
81	0xbe5730cd	-0.2101471
82	0xbc993a5a	-0.018704582
83	0xba428825	-0.00074208
84	0xbe821829	-0.25409058
85	0xbe5b661d	-0.21425672
86	0x3e1e9d35	0.15489657
87	0xbf073540	-0.5281563
88	0x3eaddd1c	0.33957756
89	0x3f23c087	0.6396565
90	0x3e7b333c	0.24531263
91	0x3e037971	0.12839295
92	0x3f8488f4	1.0354295
93	0xbf1be440	-0.60895157
94	0x3eede137	0.46460888
95	0xbe2c3899	-0.16818465
96	0x3e86a429	0.2629712
97	0x3f0f97ac	0.5609081
98	0xbecd64ef	-0.4011607
99	0x3e4a9d27	0.19786511
100	0x3ddbab32	0.10726012
101	0x3f9c73a8	1.2222795
102	0x3f316351	0.6929217
103	0x3f1ed09b	0.62037057
104	0x3f2ecab3	0.68278044
105	0x3f53d1e5	0.8274215
106	0xbf0ee73b	-0.5582158
107	0x3f217c1a	0.6307999
108	0xbd12c311	-0.03583056
109	0x3e9a0948	0.30085206
110	0x3f3911e9	0.72292954
111	0xbf8262e2	-1.0186427
112	0x3f28bac3	0.65909976
113	0xbf361e61	-0.71140105
114	0xbf92e18b	-1.147508
115	0x3e7b8643	0.24562936
116	0xbf5d45d8	-0.864347
117	0xbd26753e	-0.040639155
118	0x3e3054aa	0.17219797
119	0x3e96e3c4	0.29470646
120	0x3f4b191c	0.7933519
121	0xbeaad88a	-0.3336833
122	0x3e893171	0.26795533
123	0xbf6f3e50	-0.93454456
124	0x3eb0a206	0.34498614
125	0x3b666dde	0.00351607
126	0x3e078c23	0.13237052
127	0xbf38daf5	-0.722091
128	0x3f11016a	0.5664278
129	0xbda38f17	-0.079862766
130	0xbe5fb945	-0.21848018
131	0x3ea468c8	0.32111192
132	0xbf7118f4	-0.941787
133	0x3f1347ca	0.57531416
134	0x3c6d91a4	0.014500055
135	0x3f2ca1c6	0.67434347
136	0x3e5637c0	0.20919704
137	0xbf25bf55	-0.64745075
138	0xbee02c0c	-0.43783605
139	0xbf055aa1	-0.52091414
140	0xbf0dc557	-0.5537924
141	0x3e05473c	0.13015455
142	0xbf27b50e	-0.6551064
143	0x3ea660f1	0.32495835
144	0xbf3f9d6a	-0.7484957
145	0xbd727c2e	-0.05920046
146	0x3f002e66	0.500708
147	0xbf828e8b	-1.0199751
148	0x3e8423e8	0.25808644
149	0xbecdbd6e	-0.40183586
150	0x3f9791e3	1.1841396
151	0xbf080308	-0.53129625
152	0x3ee1b58c	0.44083822
153	0x3f091210	0.53543186
154	0xbf982701	-1.1886903
155	0xbfcabde1	-1.5839196
156	0x3ecfc6b8	0.40581298
157	0x3eab130c	0.3341297
158	0x3ea9068c	0.33012807
159	0xbebad425	-0.36489978
160	0xbdc5c735	-0.09657136
161	0xbe1b5487	-0.15168963
162	0x3f29e8df	0.6637096
163	0x3d309b0c	0.043116614
164	0x3e91b3b6	0.2845742
165	0xbf4db79a	-0.8035828
166	0xbe0fff3e	-0.14062211
167	0x3f095884	0.5365069
168	0x3f371946	0.7152294
169	0x3f0fb54e	0.56136024
170	0xbe679111	-0.22613932
171	0x3e9ead87	0.30991766
172	0x3f0c6f2a	0.5485712
173	0xbf89abbf	-1.0755538
174	0xbf11a35b	-0.56889886
175	0x3f466cf4	0.7751
176	0x3e32b92a	0.17453447
177	0x3eee966b	0.46599135
178	0xc00171dd	-2.0225747
179	0x3e9a97f8	0.30194068
180	0xbebf2bd7	-0.37338135
181	0x3e065e47	0.13121901
182	0x3e830aeb	0.25594267
183	0xbe57b8d4	-0.210666
184	0xbf287a13	-0.6581127
185	0xbd08d54a	-0.033406533
186	0xbe0af0ee	-0.1356847
187	0x3f19e3aa	0.6011301
188	0x3ea43bde	0.32076925
189	0xbf5081f8	-0.81448317
190	0x3c540e22	0.012942823
191	0xbe286814	-0.16445953
192	0x3df454c5	0.11930231
193	0x3f219435	0.6311677
194	0x3e09bfb8	0.13452041
195	0x3e802937	0.25031444
196	0x3da91e9b	0.08257791
197	0x3eed6355	0.46364847
198	0x3ecfc0ba	0.40576726
199	0x3e7fc1f4	0.24976331
200	0x3d3b4a1d	0.045724977
201	0x3f0d9c31	0.55316454
202	0x3e463c6d	0.19358988
203	0xbf6e74d8	-0.9314704
204	0xbfdc6e64	-1.7221189
205	0x3ed75e46	0.42064112
206	0x3e7c416b	0.2463433
207	0x3e331b32	0.17490843
208	0x3eb52bd7	0.3538501
209	0x3f1a8ebd	0.6037405
210	0x3f3fc074	0.74903035
211	0xbf4c7b81	-0.7987595
212	0xbf798881	-0.97473913
213	0xbe2c698a	-0.16837135
214	0x3ebc9070	0.36828947
215	0x3eb8bd99	0.36082152
216	0x3eeba76c	0.4602617
217	0x3edd85c4	0.43266118
218	0x3f7f1230	0.99637127
219	0x3f6cd224	0.9250815
220	0xbeda5b61	-0.42647842
221	0xbea9e294	-0.33180678
222	0x3ef90e8d	0.48643914
223	0xbe32f9b2	-0.17478064
224	0x3ec852aa	0.39125568
225	0x3f3b0c10	0.7306528
226	0x3d4c0480	0.04980898
227	0x3d1422b1	0.036165897
228	0x3f144347	0.5791516
229	0xbeac8675	-0.33696333
230	0x3d42e378	0.047580212
231	0x3ec3484a	0.3814109
232	0x3ee6abc6	0.45052928
233	0xbdb82b64	-0.08992651
234	0x3edfb3be	0.4369182
235	0x3f911813	1.1335472
236	0x3eb95cdc	0.3620366
237	0x3e067ea9	0.13134255
238	0x3e50170f	0.20321296
239	0x3d0baada	0.034098484
240	0xbe286f24	-0.16448647
241	0xbdde1f2d	-0.1084579
242	0x3f9b9ab9	1.2156593
243	0xbece6c6f	-0.40317103
244	0x3f3f1e24	0.74655366
245	0x3e058c06	0.13041696
246	0xbeae71ad	-0.34071103
247	0x3f07f044	0.5310099
248	0x3fb09872	1.3796523
249	0x3f531017	0.82446426
250	0xbf027128	-0.5095391
251	0x3d9431ea	0.07236083
252	0x3dbb4c39	0.09145398
253	0x3edd0aea	0.4317239
254	0xbf2268dc	-0.6344125
255	0xbf410ac6	-0.75407064

fc2.bias f4 [10]
0	0xc10ddeec	-8.866924
1	0x415e066e	13.87657
2	0x4099f1c9	4.810765
3	0x404a848c	3.16434
4	0xc0ad5885	-5.4170556
5	0x411cd0cb	9.800975
6	0xc0bea8fe	-5.958129
7	0x40fa9898	7.831127
8	0xc1502f13	-13.011493
9	0xc0c951c1	-6.2912297
