models/MNIST28x28_coh_N[25].pth (torch, 80739 bytes, 3 tensors)

fcs.0.weight f4 [25, 784]
00000000: 1c85 b03d 29bf 2ebd 47b0 113d ef2a 713d
00000010: bce0 d33c e11d c7bc 355f 51bd 5ce1 95bc
00000020: 625d 4abd 2639 6dbd 5971 7cbd 34da 87bd
00000030: 4516 bcbd 1ed8 a6bd f41d 45bd 170f 5d3c
00000040: 772a f93c b090 003d a9ca b3bb b127 61bd
00000050: bcd4 8dbd 115d 8abd cddc 03bd df1e 8cbd
00000060: 607a 77bc 0889 373d 9848 f4bc cc98 213d
00000070: 723b 34bd 912e 853d dfd4 98bd c572 9a3c
00000080: a31b 8bbc a9a9 7abc 4aea 3abd 5cbc 6fbd
00000090: 70c7 afbd 228a bebd 30a0 e8bc fae8 11bd
000000a0: 7c80 14bc cf29 a5bc 3a34 173b b6a0 ec3b
000000b0: 6337 f23b 093a 2d3b 0258 433b 492f 01bb
000000c0: 08ab e7bc 741f 7fbb d8d8 2cbd 3dce 8abd
000000d0: 4212 86bd fb2c 21bd 4b02 bcbd e642 f4bb
000000e0: b048 53bd 499c 23bd e5f0 003c eafd bd3b
000000f0: ea7b 9f3b 907b 45bc 01ce a7bd 3ac4 3eb9
00000100: 5d56 febb 0218 26bc fec4 25bd cf27 03bc
00000110: 685b e33c 25ec 723c 5868 043d 82c9 f73c
00000120: 378e 1b3c 78b2 0a3d 5d24 5b3d fa4a f33c
00000130: 4e36 123d 8b2c 763c 3c1b 013d 8b5d aa3c
00000140: d29a 53bc 49a8 bdbd dcbb 38be 15cb 7bbd
00000150: 23c3 b9bd ff38 383d 0e9b 1dbd 7b1b 0cbd
00000160: 7691 833d 86a0 02bd bd48 98bd 8371 aabd
00000170: 0fb8 dbbd fd47 acbd 4a2f a0bd 2856 0dbe
00000180: 939e 15be 0f38 04be 38bb 11be d970 01be
00000190: ec2d d3bd ff61 91bd 096b fabc ca6a a9bc
000001a0: 7be7 4c3c f814 153d 86bb b03c 33e9 463c
000001b0: 008e 943c faf6 a0bc 193e 2cbe 51a7 39be
000001c0: 2159 233d 05e8 a6bb c208 83bd 8713 453d
000001d0: 1e9c 913c bdfc 633c 8931 44bb c73a d43c
000001e0: de02 f73c d4ad 583c cfcc 233d 98eb dc3d
000001f0: 4679 3d3e a4c2 343e 6984 593e 1d8c 3c3e
00000200: 09a3 1b3e 089d 093e 825a a43d 5067 383d
00000210: e99c 3e3d cfcd 0e3d 2fac f93c af33 b1bb
00000220: 23c3 873d 02b7 02bc a3e3 343d 3123 56be
00000230: cbde 9fbb bd25 63bd 5514 c43d c9b6 913c
00000240: b016 a03c df92 173d aae8 4d3d 6c6b ce3c
00000250: d1f4 8e3a f39c 053c 1a57 cb3c 3210 fd3b
00000260: b59d 01bc c876 92bc 338d 4ebd 7921 a9bc
00000270: c177 513b bd03 6b3c e34e 073d 85e7 0c3d
00000280: ae3a 473c 22a5 af3b 3b0f 883d 4143 6c3d
00000290: 771f 3b3d 6b34 8f3d 4325 023e f72c 5abd
000002a0: 9b18 ccbd 606e 55bc dff8 373e 15c0 8b3d
000002b0: 9e69 d63a 7bcf c23c 7b9f efbc 8be7 57bc
000002c0: 57a3 e1bc f91a 9cbd b741 98bd 95a8 e2bd
000002d0: 1460 05be 8c4c 13be 6cc4 d7bd 3323 04be
000002e0: 1e0b 72bd 597b b0bc 23ce 2fbd f61a a4bc
000002f0: 8699 c83c 81a5 dabc 507f b53a d0af 003c
00000300: fa5d 013d 7fd2 f9bc 09e3 e6bc 51ed cfbc
00000310: 1adf 23be 489a 56bd fc11 0c3c 0298 713d
00000320: 69b7 0a3d 31e0 84bc a13a adbc 1c2c 98bc
00000330: 8a21 17bd 849a 91bd a031 d0bd c479 c1bd
00000340: 2d16 dcbd e1c7 f3bd 8e9c 03be 7aa6 fcbd
00000350: 9942 bdbd bd68 f4bd b232 1dbe 0e06 d4bd
00000360: efcf dfbd 2775 fabd b7b4 e1bd 67fe b1bd
00000370: a8d1 9abd 7743 a2bd e777 d3bc 1df0 97bd
00000380: 7a6a b9bd 3407 b3bc 3f85 b8bd ff36 56bd
00000390: 24a1 22bd 1d58 7dbd f33b e0bc 7a85 a7bd
000003a0: d1ef aebd 6476 c1bd 7811 2cbd 9d48 e5bd
000003b0: 4a6f bebd 8477 c8bd 7646 15be 7d03 3ebe
000003c0: 594f 48be b6cf f1bd 8f3d 4dbe dd75 28be
000003d0: 72a2 c3bd f7a4 b0bd d708 8cbd ac3f 9cbd
000003e0: 395a a3bc 1927 13bd 565e 9bbd d0af d2bd
000003f0: 331c dbbd 623e 923c ca16 8bbe 40cd 6abe
0.086191386 -0.042662773 0.0355685 0.058878835 0.025863998 -0.02430624 -0.051116187 -0.018295936
-0.049405463 -0.05791583 -0.061631534 -0.06633416 -0.09183935 -0.0814669 -0.04812427 0.013492367
0.030415757 0.031387985 -0.0054868055 -0.054969493 -0.069253415 -0.06756032 -0.032192994 -0.06841826
-0.01510486 0.044808418 -0.029819772 0.03945236 -0.044002004 0.065030225 -0.07462477 0.018853555
-0.016980952 -0.015299239 -0.04563359 -0.058529243 -0.085829616 -0.093036905 -0.028396696 -0.035622574
-0.009063836 -0.020161537 0.00230719 0.0072213067 0.0073918565 0.0026432297 0.0029807095 -0.0019712022
-0.028279796 -0.003892866 -0.042198986 -0.06777618 -0.06546451 -0.039349537 -0.09180125 -0.007454264
-0.051582992 -0.039943967 0.007869934 0.005798091 0.0048670666 -0.012053385 -0.08193589 -0.00018192912
-0.00776176 -0.01013756 -0.04047107 -0.008005097 0.027753547 0.014826809 0.032326072 0.030247454
0.009494356 0.033861607 0.053501476 0.029698838 0.03569632 0.015025268 0.031520113 0.020796558
-0.01291533 -0.092606135 -0.18040413 -0.06147297 -0.090704225 0.04497623 -0.03847795 -0.034205895
0.06424229 -0.03189137 -0.07435749 -0.08322432 -0.10728466 -0.08412168 -0.0782152 -0.13802397
-0.14611273 -0.1291201 -0.14231575 -0.12640704 -0.10311493 -0.070987694 -0.030568616 -0.020680804
0.012506361 0.03639695 0.021573793 0.01214056 0.018134117 -0.019649018 -0.16820563 -0.18130232
0.03987992 -0.005093577 -0.06398155 0.048114326 0.017774638 0.013915238 -0.0029936752 0.025906933
0.030152734 0.013225038 0.039990243 0.107871234 0.18503293 0.17652375 0.21241917 0.18412824
0.15198912 0.13438809 0.080250755 0.0450204 0.04653636 0.034864243 0.030477611 -0.0054077725
0.06629016 -0.007978203 0.044162404 -0.20911862 -0.004878854 -0.055455912 0.095741905 0.017787354
0.019542068 0.0370053 0.050270714 0.025197707 0.0010906701 0.008155095 0.024821807 0.007722878
-0.007911135 -0.017878905 -0.050427627 -0.020645844 0.0031962248 0.014344153 0.033034217 0.03440048
0.012159986 0.0053602615 0.0664353 0.057681326 0.045684304 0.0699242 0.12709527 -0.053265538
-0.099656306 -0.013026804 0.1796603 0.06823746 0.0016358381 0.023780575 -0.02925085 -0.013177763
-0.027543707 -0.07622332 -0.07434409 -0.11067311 -0.13024932 -0.14384669 -0.105355114 -0.12904052
-0.059092633 -0.021543192 -0.042921197 -0.020032387 0.024487268 -0.026690247 0.0013847146 0.007854417
0.031583764 -0.03049588 -0.02818443 -0.025381716 -0.16003075 -0.052393228 0.00854921 0.058982857
0.03386632 -0.016220184 -0.02114612 -0.01857572 -0.03689722 -0.0710955 -0.10165715 -0.09447053
-0.10746417 -0.11903358 -0.1285269 -0.123364404 -0.09241218 -0.1193404 -0.1535137 -0.10352717
-0.10928332 -0.12229376 -0.11020797 -0.086911015 -0.0755952 -0.07923024 -0.02581401 -0.07418845
-0.09053512 -0.02185402 -0.0900979 -0.052298542 -0.039704457 -0.06185161 -0.027372336 -0.081797555
-0.08541835 -0.09446409 -0.042008847 -0.111954905 -0.092985705 -0.09788421 -0.1457766 -0.18556018
-0.19561519 -0.11807196 -0.20043014 -0.16451211 -0.09552468 -0.086252145 -0.068376236 -0.07629332
-0.019940482 -0.03592596 -0.075863525 -0.1028744 -0.10698738 0.017852012 -0.27165824 -0.22929859

last_fc.weight f4 [10, 25]
00000000: 9424 b53f 7fac 8e3e ac64 a83f 5936 0abf
00000010: a1e2 273f aa21 ea3e 6b35 d2bf 9e4d 8d3f
00000020: e277 0640 4ca2 cebf eeca a83f 680c bb3f
00000030: deab 58be c7b5 c6bf ae19 bbbe 5e39 d7be
00000040: 087e 89bf b3bc 1740 fb58 ca3f 4dd5 1c3f
00000050: f742 1dbf 3ae5 e23f d489 9abf 7ba4 a23a
00000060: 07d5 c43e 09da 09bf e211 d7bf 3399 93bf
00000070: 5e2c 5dbf f615 9d3f 19ee a23f bbc2 163f
00000080: 836b 92bf ec38 bdbf 9ee0 493f 7879 dabe
00000090: 26ae 6f3e f4c4 93bf 0584 b9bf 6ea3 a63f
000000a0: 6974 78bf 4653 8f3f 9891 09bf 8977 ecbf
000000b0: 01eb 253e fe89 23bf 4250 e63e 4bdb 193d
000000c0: fdb3 273f e17d b8bf 2c18 46be 7f21 9c3e
000000d0: f62a 1b3f 3f4b 903f 16b4 46bf 1bd8 1bbf
000000e0: 321b 133f e5f8 bbbf e264 1ac0 34ed c73e
000000f0: 34b7 5c3f 55bb 443f 0c1d 77bf 2668 dfbe
00000100: 23e7 503f f0eb ab3f ec35 933e 209d a53f
00000110: b6e5 083f 5c2d 963e af8c 7f3f a014 693f
00000120: 9f62 a6bf 7c5e 373f 40d6 183f 3942 623e
00000130: b77e 4f3f 6afe 4d3f 7ca9 7f3f c4bd 21bf
00000140: 2ec7 84be 9fea 903f 1071 d3bf 9785 d9be
00000150: 2433 c0bf 4571 8d3f 57f2 0a3e 3d3d 17bf
00000160: 26c9 703f 2e35 5d3f 90e6 0fbf 0434 9fbf
00000170: bf0b ccbf 8bd1 5dbf 7717 a2bf a432 713f
00000180: f73a fb3e 6662 433f 7706 8e3e 9355 ec3e
00000190: f631 b4bf c20d a0bf 133a 6dbf 4cdf 63bf
000001a0: 477c 003f ba42 983f 690a abbf a8da 8e3f
000001b0: 2f6f c73f 1f3b 2e3f d5c6 b9bf ac05 ddbf
000001c0: 51fe 0dbf b85a 833f da0d 123f 729a a93f
000001d0: bc40 0c3f d125 94bf 6467 203f a175 7a3f
000001e0: d344 653e f134 82bf 00ae 3abe 97c8 303f
000001f0: bf71 663f 7b8a 713e 059e 903e d47c 3d3e
00000200: f1ea 02bc 2bb4 363f 2239 12bf 5d60 6bbe
00000210: 7a8a 6a3f 5862 e3bb eb6e 91bf 66de 6a3f
00000220: 06d3 bb3e 9b04 e93f 50e6 153f d6ff 36bf
00000230: d765 0cbf a39d 9dbf 32f7 9ebf 0ed2 52bf
00000240: 6d88 babf 3ecc 0f3f 4744 fcbf 104a 5abe
00000250: 772f fabf b748 d73e 9093 dfbf e701 f6bf
00000260: c1b9 a03f 6f11 c0bf b39c 1f3f d372 7a3f
00000270: 74e9 1f3f fbb9 533f 7e14 ea3e 552c 2f3f
00000280: 7cb3 783f 4dd1 d83f e9fd ab3f cf87 8c3e
00000290: 019e 3fbf c0cd 983f 2bf2 81bd 9a11 1040
000002a0: 2e7b b43f 4403 33bf 084b b2bf 55ea aabf
000002b0: cde4 c1bf c732 d3bf 9a42 99be a922 bb3f
000002c0: 1c79 613f 4006 153f 5970 a73f 9c2a e8be
000002d0: 2ed9 3cbf fa9f 86bf 0431 0dbf 85be d5bf
000002e0: 30aa cdbe d636 cabf f8af 06c0 5c86 6b3e
000002f0: 9e93 8fbf ae89 be3e 8174 e5be d343 7c3f
00000300: db34 a9bf b38f 8ebe d8f7 613f eb3e 6f3f
00000310: c235 cd3e 5c94 a73f 142d 133f e767 8fbf
00000320: 49e0 123e 083a 003f b06a 37bf 2cd0 0dbf
00000330: bfdf 6cbf 06d0 c5be b329 5f3f c88b 1f3f
00000340: bddd 903e b943 9a3f d0d8 8b3f 27d6 963f
00000350: 1ce1 053e 4131 b53e 1eab 31bf 1d93 5ebf
00000360: 4899 d93e e436 843f 1c4b ccbf 6695 4cbf
00000370: d596 0e3f 8bb7 01be 7cd9 bb3e 3987 713e
00000380: 33d9 afbf 4940 4e3f bc1e 2a3f faf8 86bf
00000390: a4ca 15bf d0dd 82bf 7c28 58bf 2261 343e
000003a0: e7da 973f faf5 a53f 2600 dbbd 93a8 bcbf
000003b0: b686 e6bf 5d73 21bf 7b70 673f ad34 43bf
000003c0: 21a7 823e 2d34 15be b19f c2bf e73e 093f
000003d0: 1294 3a3f f92e 62bf 6051 413e 7ddc aa3f
000003e0: 416c c93e 9818 4d3f
1.4151788 0.2786598 1.3155723 -0.5398918 0.65580183 0.4572881 -1.6422552 1.1039312
2.101067 -1.6143279 1.3186929 1.4613161 -0.21159312 -1.5524224 -0.3654303 -0.42035955
-1.0741587 2.3708923 1.5808405 0.6126297 -0.61430305 1.7726204 -1.2073312 0.0012408638
0.38443777 -0.5384832 -1.6802332 -1.1531128 -0.86395824 1.2272327 1.2728912 0.58890885
-1.143906 -1.4782996 0.78858364 -0.42670798 0.23406276 -1.154448 -1.4493414 1.3018625
-0.9705263 1.1197288 -0.53737783 -1.8473979 0.16202928 -0.63882434 0.44983107 0.03756265
0.65509015 -1.4413415 -0.19345158 0.30494305 0.6061243 1.1272963 -0.7761854 -0.60876626
0.5746337 -1.4685332 -2.4124074 0.3904816 0.86217046 0.76848346 -0.96528697 -0.43634146
0.81602687 1.3431377 0.28752077 1.2938576 0.5347551 0.2933148 0.9982404 0.91047096
-1.2998847 0.71628547 0.5970192 0.22095574 0.81052727 0.8046633 0.9986799 -0.63180184
-0.25933212 1.1321601 -1.6518879 -0.42484733 -1.5015607 1.1050192 0.13569008 -0.5907782
0.9405693 0.8640927 -0.56211185 -1.2437749 -1.5941085 -0.8664786 -1.2663411 0.94217896
0.49068424 0.7632202 0.27739307 0.46159038 -1.4077747 -1.2504199 -0.9266674 -0.890126
0.5018963 1.1895363 -1.3362552 1.1160479 1.5580806 0.6805896 -1.4513804 -1.7267356
-0.5546618 1.026206 0.57052386 1.3250258 0.54786277 -1.1574041 0.6265776 0.9783574
0.22389536 -1.0172406 -0.18230438 0.69056076 0.9001731 0.23587982 0.2824556 0.1850465
-0.007990585 0.71368665 -0.5711843 -0.22985978 0.9161755 -0.0069392137 -1.1361974 0.91745603
0.36684436 1.820453 0.58554554 -0.71484125 -0.54842895 -1.2313732 -1.2419188 -0.8235177
-1.4572884 0.56171024 -1.9708337 -0.21317315 -1.9545735 0.42047665 -1.7466908 -1.921933
1.2556688 -1.500532 0.6234848 0.9783146 0.62465596 0.8270566 0.4571876 0.6842702
0.9714887 1.6938874 1.3436862 0.27447364 -0.7485047 1.193779 -0.06345018 2.2510743
1.4100091 -0.6992686 -1.3929148 -1.3352762 -1.514795 -1.6499871 -0.29933625 1.4619952
0.88075423 0.5821266 1.3081161 -0.45345008 -0.7376889 -1.0517571 -0.55152917 -1.6698767
-0.40168905 -1.5797985 -2.1044903 0.23000473 -1.1216924 0.37214416 -0.44815448 0.9854099
-1.3219255 -0.2784401 0.88268805 0.9345538 0.40080076 1.3092151 0.5749066 -1.1203583
0.1434337 0.5008855 -0.7164717 -0.5539577 -0.9252891 -0.38635272 0.87173 0.62322664
0.28294173 1.2051917 1.0925541 1.1784104 0.13074154 0.3538914 -0.6940173 -0.8694323
0.42499757 1.0329251 -1.5960422 -0.79915464 0.556989 -0.12667672 0.36689365 0.2358674
-1.3738159 0.8056684 0.66453147 -1.0544732 -0.5851233 -1.0223942 -0.84436774 0.17615178
1.1863679 1.2965691 -0.10693388 -1.4738945 -1.800986 -0.63066655 0.90406007 -0.7625225
0.25518134 -0.14570685 -1.5204984 0.53611606 0.7288219 -0.88352925 0.18878698 1.3348538
0.39340404 0.8011565

last_fc.bias f4 [10]
00000000: 93ed d3c0 5992 6b40 9166 febf f85e 973f
00000010: 7040 aa3d 15b0 7640 a33a 33c0 2a78 2040
00000020: d26a e6bd 6220 243f
-6.6227508 3.6808074 -1.9875051 1.1825857 0.08313072 3.8544972 -2.800454 2.5073342
-0.11250843 0.6411191
