models/MNIST28x28_incoh_N10.pth (torch, 33123 bytes, 3 tensors)

fc1.weight f4 [10, 784]
00000000: 0000 0000 03a0 db3c 0000 0000 a55b b23b
00000010: 0000 0000 0000 0000 5c6c 703c 0000 0000
00000020: 0000 0000 0000 0000 7c68 f13c dc88 ad3b
00000030: 2767 cf3a d8cc d83c f468 1a3c 2338 463c
00000040: c51c 653c aebe 023c 0000 0000 579d d23c
00000050: 3c38 8a3c 0000 0000 0000 0000 97da 083c
00000060: 0000 0000 0000 0000 0000 0000 80d9 0a3c
00000070: 0000 0000 6c92 cd3c 0000 0000 0000 0000
00000080: e7a4 e737 26e6 7b3c e1c3 983d 7caf d13d
00000090: 8cd3 833d 8c6c 0b3e e1cc a73e 5f3a 0f3f
000000a0: 6a63 273f ea7f 7a3e b8ce a53c bacd b33e
000000b0: 05f0 963f 66b1 673f f827 483e d32f ac3e
000000c0: a498 e13e 9764 ce3e 0397 473f 5441 203f
000000d0: a55d 6f3c 0000 0000 3300 153c 0000 0000
000000e0: 0000 0000 0000 0000 f3a3 e93b 1944 0c3d
000000f0: 0c1a 9c3d bfd8 0f3c f222 563e a329 013f
00000100: 6b69 013f eb3d 213f b8c0 7d3f ddc9 e43f
00000110: 6951 1e40 cd87 0c40 1038 4140 133e 1c40
00000120: a722 1740 526f 873f 39aa f43f c0ce ec39
00000130: 21e1 793f 65e4 ec3e 04e2 323a d52d e33f
00000140: 2119 433f 092a 823d 0000 0000 0000 0000
00000150: a1b1 5a3c 814f 413b 0000 0000 193d 9c3d
00000160: 1327 893f 080a ab3f ea52 a93f 475f 5140
00000170: 92d5 9d40 8c6f 3640 15c7 8140 02f4 3d3a
00000180: 9b41 1040 e3d9 d43f 979a 1f3f 8e4a d43f
00000190: 8e85 663f ab50 6d40 a7f0 0340 8f15 f73d
000001a0: be1b 8e3e 0491 b83d c86f 9a3c 0000 0000
000001b0: 3510 3f35 f06b 5a36 5b6c 483d 4306 d83c
000001c0: 0000 0000 0126 d03c bd6a 053c 988b 8638
000001d0: d0fe b53a 1260 5239 ed9b 973f f308 6439
000001e0: 77be ce38 c3b2 0c3f 7c2d 663c cfe7 bc3a
000001f0: c3f1 fb3a ae7d 4d3a eb33 9d36 1af1 f83a
00000200: d88f a439 0000 0000 7ff3 1f3c 2891 8f3c
00000210: 3008 3e3b e83d de39 b098 5b39 0000 0000
00000220: 0000 0000 894b 2b39 26be 993f 0b74 c63c
00000230: 135c 143b 6cb4 a03c 03ea c738 6422 a539
00000240: 50b1 053e d1f8 3d3a 7ddc 2c3a 0000 0000
00000250: 9162 4f3b 4a20 d43b 41a2 913d 3aaf dd3c
00000260: 7ba9 c63c 5086 8b3b 0000 0000 0000 0000
00000270: 0000 0000 0000 0000 0000 0000 0000 0000
00000280: 0171 8c3b 7811 db3a 90c9 793a 0000 0000
00000290: 0000 0000 0000 0000 7976 3740 d135 843e
000002a0: 7173 d03c 915e 6739 da1f 553e ade1 8c3c
000002b0: 3988 1b3b 2c1d 073b b125 ad3b 80eb 263c
000002c0: 27a5 923c 8e91 403c 4388 b33b 1ff6 393c
000002d0: f8dc 8839 0000 0000 0000 0000 0000 0000
000002e0: 0000 0000 0000 0000 0000 0000 0000 0000
000002f0: a434 183a 98bd ae39 dcca 623b 0000 0000
00000300: 0000 0000 9959 cd39 ed1b f640 71a1 d43e
00000310: 0000 0000 0000 0000 0000 0000 caa6 133a
00000320: 0000 0000 5e06 d43a c2a7 033b 1383 f43a
00000330: 9ff9 8e3b 0000 0000 0000 0000 0000 0000
00000340: 0000 0000 0000 0000 0000 0000 0000 0000
00000350: 0000 0000 0000 0000 0000 0000 0000 0000
00000360: 0000 0000 0000 0000 0000 0000 0000 0000
00000370: e851 1d38 67b0 cf3e bda3 b040 81fc 243f
00000380: 8ef6 cb36 0000 0000 0000 0000 b9e0 2037
00000390: 0000 0000 0000 0000 0000 0000 0000 0000
000003a0: 0000 0000 0000 0000 0000 0000 0000 0000
000003b0: 0000 0000 0000 0000 0000 0000 0000 0000
000003c0: 0000 0000 0000 0000 0000 0000 0000 0000
000003d0: 0000 0000 0000 0000 0000 0000 0000 0000
000003e0: 4771 fb33 36a5 ad40 e315 8c3f 3eb7 7e3e
000003f0: 0000 0000 0000 0000 0000 0000 100d d73a
0.0 0.026809698 0.0 0.005443054 0.0 0.0 0.014674272 0.0
0.0 0.0 0.029468767 0.005295856 0.0015823588 0.026464865 0.009424437 0.012098345
0.01398391 0.007980032 0.0 0.025709791 0.016872518 0.0 0.0 0.008352897
0.0 0.0 0.0 0.008474708 0.0 0.025094233 0.0 0.0
2.7614135e-05 0.015374696 0.07459236 0.10238549 0.06436834 0.13615626 0.32773498 0.5594844
0.6538607 0.24462858 0.020240173 0.35117894 1.1791998 0.90505064 0.19546497 0.33630237
0.44061768 0.4031112 0.779648 0.6259968 0.014609729 0.0 0.009094286 0.0
0.0 0.0 0.00713014 0.03424463 0.076221555 0.008779704 0.20911768 0.5045416
0.5055148 0.62985104 0.9912219 1.7874104 2.473719 2.1957886 3.0190468 2.4412887
2.36149 1.0580847 1.9114448 0.00045167468 0.97609144 0.46268 0.000682384 1.7748362
0.7621022 0.06355674 0.0 0.0 0.013348014 0.002949685 0.0 0.07628841
1.071505 1.3362436 1.3228428 3.2714403 4.9323206 2.8505583 4.055552 0.0007246138
2.2540042 1.6628994 0.6234526 1.6585252 0.9004754 3.7080486 2.0615633 0.12064659
0.2775554 0.090120345 0.01885213 0.0 7.117663e-07 3.254736e-06 0.04893146 0.026370173
0.0 0.025408747 0.008143124 6.415619e-05 0.0013885144 0.0002006295 1.184446 0.00021747108
9.858322e-05 0.5496027 0.01404893 0.0014412346 0.0019221831 0.0007838857 4.6850087e-06 0.0018992752
0.0003138769 0.0 0.009762644 0.01752527 0.002899658 0.00042389263 0.00020942348 0.0
0.0 0.0001633597 1.2011154 0.024225255 0.0022637888 0.019617282 9.5326475e-05 0.00031496875
0.1305592 0.00072468544 0.00065941346 0.0 0.0031644444 0.0064735757 0.071110256 0.027061094
0.024250736 0.0042579547 0.0 0.0 0.0 0.0 0.0 0.0
0.004285932 0.001671358 0.00095286313 0.0 0.0 0.0 2.866606 0.2582231
0.025445672 0.00022065105 0.20812932 0.017197454 0.0023732318 0.0020616753 0.005284034 0.0101879835
0.017901016 0.011753453 0.00547889 0.011350184 0.00026104576 0.0 0.0 0.0
0.0 0.0 0.0 0.0 0.0005806184 0.00033329125 0.0034605777 0.0
0.0 0.00039167402 7.690909 0.4152942 0.0 0.0 0.0 0.00056324585
0.0 0.0016176214 0.0020089005 0.0018654786 0.0043632532 0.0 0.0 0.0
0.0 0.0 0.0 0.0 0.0 0.0 0.0 0.0
0.0 0.0 0.0 0.0 3.7507998e-05 0.40564272 5.5199876 0.6444779
6.078574e-06 0.0 0.0 9.5890655e-06 0.0 0.0 0.0 0.0
0.0 0.0 0.0 0.0 0.0 0.0 0.0 0.0
0.0 0.0 0.0 0.0 0.0 0.0 0.0 0.0
1.1708703e-07 5.4264174 1.0944179 0.24874589 0.0 0.0 0.0 0.0016407091

fc2.weight f4 [10, 10]
00000000: 7d06 1740 4aaf e8bf 58f5 1a40 41bf 69c0
00000010: 72fb 8f3f cb9b d33f 02b5 eebd 6d78 603f
00000020: 9724 3340 71d8 b7bc 09f2 c5bf dada f2bf
00000030: 9af1 acbf 3e56 e03f 6c51 0cc0 9e2d cdbf
00000040: 1462 0dbf 81fd e23d 55a1 4ec0 d771 f8bf
00000050: 7aaa 903f 95ad 43bd 9984 553f 70e1 53bd
00000060: 042d 15c0 92f8 dc3f 302f f4bf 14b4 b53f
00000070: 8462 bbbf edfa 2840 5e8b 543f 1ad8 03bf
00000080: a9d8 ab3e bd18 ce3e 1cd7 02c0 ba6b 7b3f
00000090: 706e 403f d18a 2fc0 96e4 f2be d211 db3f
000000a0: 7b29 24c0 4329 ebbe d623 1a3f 9b58 183f
000000b0: 31b7 883f 05ce 20c0 be26 8ebf e26c 0dbf
000000c0: 1439 0540 6637 08bf a3a5 ad3f 861e 33bf
000000d0: 451e f0bf b83e 853e 374b e83f 4b3b 24bf
000000e0: fe4b 9e3f 1d12 f9bf 9e4e 213f cab0 2bbf
000000f0: 0045 f53f 7162 f43f 2a90 69c0 b736 8a3e
00000100: e566 293f 7518 72bf dfad b4bf dd12 2640
00000110: 1aff d03f 3b45 79bf be17 13c0 78cb 2f40
00000120: a7ec ae3f a50e 20c0 8b82 1cbf 4c11 4bbf
00000130: 033e d03f 5e91 193e 1a5f ecbf 2f76 873f
00000140: 4ea2 3c3e dcfc abbf 927a 4a3f 9b8e 0240
00000150: 808c 933f eac6 cc3f a386 883f f621 9d3f
00000160: be1b 25bf 10a2 87be 4b7a 26c0 60be 1a40
00000170: 6ca6 4f3f da41 063f b384 de3f bf48 1f3f
00000180: aaed b23d 7135 1ebf dd8f 783f 9bfb 3bbf
2.359771 -1.8178494 2.4212246 -3.6522982 1.124861 1.6531919 -0.11655618 0.87683755
2.7991083 -0.022442074 -1.5464488 -1.8973038 -1.3511231 1.7526319 -2.1924696 -1.6029546
-0.5522778 0.11083508 -3.228597 -1.9409741 1.1302025 -0.047772963 0.8340545 -0.051728666
-2.3308725 1.7263358 -1.90769 1.419558 -1.463944 2.6403153 0.8302516 -0.5150162
0.33563736 0.4025325 -2.0443792 0.9821125 0.75168514 -2.7428477 -0.47440022 1.7114813
-2.5650318 -0.45929918 0.6021093 0.595102 1.0680906 -2.5125744 -1.1105573 -0.55244267
2.0816088 -0.5320953 1.3566173 -0.6996845 -1.8759238 0.26024413 1.8147954 -0.64152974
1.2366941 -1.9458653 0.63010585 -0.67066634 1.9161682 1.9092542 -3.649424 0.2699487
0.6617263 -0.9456857 -1.4115561 2.5949013 1.6327851 -0.9737126 -2.298324 2.7467937
1.366597 -2.5008938 -0.6113669 -0.7932327 1.6268924 0.1499686 -1.8466523 1.0582942
0.1842129 -1.3436542 0.7909328 2.039954 1.1527252 1.5998204 1.0666088 1.2275989
-0.64495456 -0.2649083 -2.6012142 2.4178696 0.81113315 0.5244423 1.7384247 0.62220377
0.08736737 -0.61800295 0.9709452 -0.73430794

fc2.bias f4 [10]
00000000: 8e45 a9c0 4e25 ca40 ca71 bbbf a131 b53f
00000010: 72b3 2640 630b cb3f d3c8 a9bf 475c af3f
00000020: f3bb 5bc0 ec2a b0bf
-5.2897406 6.317054 -1.4644101 1.415577 2.6047025 1.586285 -1.3264412 1.3700036
-3.4333465 -1.3763099
