models/MNIST28x28_coh_N[20].pth (torch, 64867 bytes, 3 tensors)

fcs.0.weight f4 [20, 784]
000000 17 c8 86 3d 67 ab 8a 3d 79 27 58 bd e2 e2 93 3d
       0.06581133 0.06770974 -0.05277202 0.07221009
000010 48 19 6e 3d 7f 8c 3e 3c 79 d6 43 bd f9 e6 a5 bd
       0.05812958 0.011630177 -0.04781196 -0.08100695
000020 19 18 89 bd 89 42 43 bb 2c 94 2a 3c 52 d4 40 3b
       -0.066940494 -0.0029794297 0.0104113035 0.0029423428
000030 5a 7e 7f bd bf 0e b9 bd c2 0a 1a be 58 ee dd bd
       -0.062376358 -0.09036016 -0.15043166 -0.10836476
000040 f3 96 a1 bc fe 47 b7 3c e8 aa 7b 3d 8f 4e 3e 3d
       -0.019725299 0.022373196 0.061442286 0.046461638
000050 ec 39 12 3d 7e c1 42 3d 87 e2 4d bd ac b1 24 3d
       0.03569977 0.04754781 -0.05026486 0.040208504
000060 6e 1b 14 3d 9c d8 0e 3d 69 26 10 3d 0c bc 38 bd
       0.03615897 0.034874544 0.03519288 -0.04510121
000070 92 f0 aa 3d 60 c6 0e ba 07 7b b5 bd 5a bd 60 bc
       0.083466664 -0.00054464303 -0.08861356 -0.01371702
000080 59 d7 b6 bd f4 82 40 bd dc 73 1c bd 2c 99 39 bd
       -0.08927793 -0.046999887 -0.03819643 -0.04531209
000090 41 3a 82 bc 26 0e 85 3b 0f e6 d2 3c 44 aa e5 3c
       -0.015896918 0.0040605245 0.025744466 0.02803529
0000a0 d0 2b 36 3d 59 6d b2 3d 99 3f cc 3d e8 22 d8 3d
       0.044475377 0.08712263 0.09973068 0.10553533
0000b0 d1 fc b6 3d 04 2c 58 3d a1 f4 b1 3d fb 15 4d 3d
       0.0893494 0.05277635 0.086892374 0.05006979
0000c0 ba 11 70 3d 43 7f 24 3d 47 3b 8f 3b 8b e6 31 bd
       0.058610655 0.04016043 0.00437108 -0.043432754
0000d0 1e 64 e9 3d b6 fe 95 3d 13 e5 f6 3c 7a 52 9e 3b
       0.11396049 0.07323973 0.030138528 0.0048316093
0000e0 eb 39 a4 bd 17 a5 29 bc fa de b4 bd d0 0a 53 bd
       -0.080188595 -0.010354302 -0.08831592 -0.051523983
0000f0 5c 60 02 bd 79 88 23 3d c4 e0 64 bc 61 56 25 bd
       -0.031830177 0.039925072 -0.013969604 -0.04036558
000100 cb b4 a2 bc cf 71 2a bd 82 3f 89 bd c0 cc 3c bd
       -0.0198616 -0.041612443 -0.06701566 -0.046093702
000110 da 8c 63 bd 7e d2 30 bd 6b cd 05 bd e1 e8 4a bd
       -0.05555425 -0.04316949 -0.032666605 -0.049538497
000120 6a 53 c7 3c 57 8d b6 bc 25 72 0d bc 78 01 c4 bb
       0.024331767 -0.022284193 -0.008633171 -0.0059816204
000130 da c0 c8 3b 3c a9 48 3b 32 5a c4 bc 70 3d dd bc
       0.0061265053 0.003061845 -0.02396879 -0.027006835
000140 22 38 c5 bd 0d 4d 7d bd d2 cf 4d 3d b4 9a 5d bd
       -0.09629847 -0.06184106 0.05024702 -0.054102615
000150 54 5d a6 bc 0b 2f 1b bc 20 33 23 be ac 77 13 be
       -0.020308174 -0.009471665 -0.15937471 -0.1440112
000160 cb 5c 53 3d 60 63 08 3d 49 68 14 bc b3 a4 1a bd
       0.051602166 0.033297896 -0.009058067 -0.037754726
000170 c7 03 38 bc 8c 4f 3d bd dd ba 92 bd bc d7 84 bd
       -0.011231369 -0.04621844 -0.071645476 -0.064864606
000180 40 f3 85 bd c3 36 91 bd b6 f4 a9 bd c4 6d cc bd
       -0.06540537 -0.07090523 -0.08298628 -0.09981874
000190 60 46 84 bd 58 2f 8b bd b0 62 18 bd 41 db b2 bc
       -0.064587355 -0.067961395 -0.03720349 -0.021833064
0001a0 ac 68 85 bc 5e 79 0c bd 79 e3 88 bc 7a 58 b6 3b
       -0.016285263 -0.034295432 -0.01671003 0.0055647464
0001b0 9b 86 0c bd a2 41 fa bd 37 c0 66 be 56 25 fb bd
       -0.034308057 -0.1221955 -0.22534262 -0.12262981
0001c0 38 f9 2b bc 8a 97 3c bd e8 e4 6e be 25 a8 59 bd
       -0.01049643 -0.046042956 -0.23329508 -0.05313887
0001d0 25 97 10 bd 96 21 28 bd d2 45 9c bb b0 43 95 b8
       -0.035300393 -0.041047655 -0.0047690654 -7.1174814e-05
0001e0 61 9c 30 bd c5 f8 be bc 2e 11 4e bd ec 81 2c bd
       -0.043117885 -0.023311982 -0.050309353 -0.04211609
0001f0 54 c7 28 bd fb b0 47 bc 1d ee 99 3c ec 74 0b 3c
       -0.04120572 -0.0121881915 0.0187903 0.008511763
000200 90 2c 2b bc dd 53 c1 bc df 50 eb bc 2e 65 3d bd
       -0.010447636 -0.02359956 -0.028725086 -0.04623907
000210 fc 3d 96 bc 65 a0 96 bc 20 1b fb bc 46 fb f6 3b
       -0.018340103 -0.018387029 -0.030652583 0.0075372783
000220 b3 54 34 bc 18 2f a5 bc 60 30 f9 bd 6f c2 8d be
       -0.011006522 -0.020164058 -0.1216743 -0.27687404
000230 49 75 69 bd 72 cb fa bd 10 6e e3 bd 2e 3a c1 b8
       -0.056996617 -0.12245835 -0.11104977 -9.213794e-05
000240 50 51 26 bd 5d 55 1d bd 8d d4 82 bd be 47 e8 bc
       -0.04060489 -0.038411487 -0.06388197 -0.028354522
000250 f9 5b cd bc 6c 0b 3a bd 97 6a e6 bc fc 41 54 bd
       -0.02506827 -0.04542105 -0.028126998 -0.05182074
000260 f3 54 22 bd f4 84 c0 bd 79 e4 b7 bd 11 1d 9d bd
       -0.039631795 -0.09400359 -0.089791246 -0.076715596
000270 e5 38 6b bd fd 1a 5b bd 64 8e a1 bd 41 fb 20 bd
       -0.057427306 -0.053492535 -0.07888487 -0.039302114
000280 72 40 81 bd e8 f1 c5 bc 57 69 48 bd a4 c9 8d 3b
       -0.0631112 -0.024163201 -0.048928585 0.004327016
000290 a8 d2 a2 bc 13 d9 a7 bc 89 dd a4 bd eb 12 67 be
       -0.01987584 -0.020489251 -0.08050067 -0.2256581
0002a0 40 11 8e bc 3b 2f 19 bd 8c 9d 80 bd 37 97 cb bd
       -0.01734221 -0.037398558 -0.0628005 -0.09940951
0002b0 87 c5 10 bd 40 9e 55 bd e5 22 bb bc ac a8 34 bd
       -0.035344627 -0.052152872 -0.022843787 -0.04410617
0002c0 bd 1b 17 bc a2 17 2a bd 91 f7 68 bd 31 8d 85 bd
       -0.009222922 -0.041526444 -0.056876723 -0.06521071
0002d0 b2 a6 ab bd f2 58 84 bd 9d 9d 88 bd 2e 9f 89 bd
       -0.08381404 -0.064622775 -0.06670687 -0.06719814
0002e0 ba 53 85 bd 3d a1 13 bd d5 9f 3f bd df a5 29 bd
       -0.0651011 -0.03604244 -0.046783287 -0.041417953
0002f0 e7 92 90 bc 87 e9 8c bc eb 52 92 3b fb 84 c6 3c
       -0.017648173 -0.017201198 0.004465451 0.024233332
000300 bb 70 37 3d 2e 3c 3d 3d 1c 88 8c bc 4a 41 4e be
       0.044785243 0.04619997 -0.017154746 -0.20142093
000310 c8 59 cb bd 2f b2 35 be 31 bb 23 be 97 c2 fa bc
       -0.09929234 -0.17743753 -0.15989377 -0.030610366
000320 65 42 54 3c 6b ea 42 bd 99 f7 4f bd 66 18 63 bc
       0.012955283 -0.04758684 -0.050773237 -0.0138607975
000330 1e 45 ce bc cb e7 df bc bd 25 6b bd c5 60 36 bd
       -0.025179442 -0.027332207 -0.057409037 -0.04452588
000340 14 cc 9d bd b2 56 b3 bd 89 2d 84 bd e9 0f 89 bd
       -0.077049404 -0.0875677 -0.06453998 -0.06692488
000350 5e 09 cb bd 88 0b 40 bd 51 0e 80 bd 0d b9 13 bd
       -0.09913896 -0.046885997 -0.06252731 -0.03606515
000360 23 86 6e bc 8d d5 f2 bc b1 c9 c6 bc ab ba 20 bb
       -0.014558348 -0.029642845 -0.024266096 -0.0024525325
000370 5d d2 5b 3c 5c 99 c7 3d 4b 2e 02 3e 77 fe 8f bd
       0.013416854 0.09746048 0.12712972 -0.07030957
000380 44 58 57 be d9 68 86 be a9 ff 44 be f6 7c 7c bd
       -0.21029764 -0.26251867 -0.19238152 -0.06164261
000390 b2 05 6e bc 7b c0 19 bd 9d d8 89 bd 9a 45 56 bd
       -0.014527725 -0.03753708 -0.06730769 -0.05231247
0003a0 3e ef 1b bd 16 2f 83 bd 45 7f 34 bd 88 1f 42 bd
       -0.038069956 -0.06405465 -0.044066686 -0.04739335
0003b0 7c 61 d7 bc 37 51 6b bd 2b a5 73 bd 03 93 b0 bd
       -0.026291601 -0.0574505 -0.05948369 -0.0862179
0003c0 50 86 b7 bd 79 cc 82 bd a5 e0 0c bd fc e6 8e bd
       -0.08961165 -0.06386656 -0.034393925 -0.069776505
0003d0 8c fd 96 bd 51 47 b7 bd 19 14 bf bc ec dd f1 bd
       -0.07372579 -0.089491494 -0.023325013 -0.11809906
0003e0 08 48 3f bd 9b 83 6e bb 1e 75 3f 3e 1c 9f 01 3e
       -0.046699554 -0.003639436 0.1869702 0.12658352
0003f0 71 55 b6 be b0 9c 86 be 61 63 a6 be 75 81 0c be
       -0.35612062 -0.26291418 -0.32497695 -0.13721259

last_fc.weight f4 [10, 20]
000000 3a 2d 9f 3f d9 46 9d bf f5 ff 9c bf 6b 15 d2 bd
       1.2435677 -1.2287246 -1.2265612 -0.102579914
000010 e3 5b 9e bf 26 e5 ca 3f d9 15 e2 be bf c9 91 3f
       -1.2371792 1.585118 -0.44157293 1.1389693
000020 ab 38 c5 3f e7 f8 a5 bf a6 85 c3 3f e3 95 4f 3f
       1.5407919 -1.2966584 1.5275161 0.81088084
000030 bf d7 a9 be 33 6c d6 3f b2 d9 c7 bf bf 90 0b 40
       -0.33172414 1.675177 -1.561331 2.1807096
000040 d1 9d c8 be 85 a4 17 40 2b 2f 11 be 23 10 a3 bf
       -0.39182904 2.3694165 -0.1417815 -1.27393
000050 f5 75 e5 be cb ea cf bf ab a8 bd bf ce 47 99 3f
       -0.44816557 -1.6243528 -1.4817098 1.1975038
000060 db aa 39 3f 8a 11 8b bf 45 c6 9f 3f f8 6f e7 bf
       0.7252633 -1.0864727 1.2482382 -1.8081045
000070 b5 c0 b6 3e 89 09 8d 3e 9b bc 54 3e be 96 11 bf
       0.356939 0.27546337 0.20775072 -0.5687064
000080 ba da a1 bf cc e0 b2 bf f7 41 54 3f a4 6b ef bf
       -1.2644875 -1.3974853 0.82913154 -1.8704724
000090 09 02 92 bf 3d 2a e1 be 35 90 b8 bf 65 37 9f 3f
       -1.1406871 -0.43977538 -1.4419008 1.243878
0000a0 38 8d 57 bf e4 9c 15 bd 7c 2f 63 bf e8 1a af bf
       -0.8419986 -0.036526576 -0.8874433 -1.3680086
0000b0 23 9a e7 3e da 16 1d c0 74 5f 3b 3f 47 94 8f be
       0.45234784 -2.4545197 0.73192525 -0.28042814
0000c0 88 3a 85 3f df 07 c4 be 3a 52 52 3f a6 aa 3e 3f
       1.0408487 -0.38287255 0.8215672 0.7447914
0000d0 6e ad c8 3e 11 ea 81 3f c9 c7 57 3f 5a fc 7a 3f
       0.39194816 1.0149556 0.8428922 0.9804131
0000e0 76 54 ac 3f bc 38 98 3f c8 d4 51 3f 73 67 28 3f
       1.3463275 1.1892314 0.81965303 0.6578285
0000f0 61 3b 94 3f f0 89 ad 3f 7f 07 05 3f 0e 3f 82 3f
       1.1580621 1.355772 0.51964563 1.0175493
000100 bd 3d ad bf f5 61 db bf f3 b4 8f 3f b9 38 2f bf
       -1.3534466 -1.7139269 1.1227096 -0.68445927
000110 ba c8 33 3f c3 fd 86 3f 95 8c f4 3e 6f 83 f3 3e
       0.7022816 1.0546192 0.47763506 0.47561213
000120 6f 8e 68 3f a9 ab 76 3f 0d 10 07 3f 71 89 54 bf
       0.90842336 0.9635568 0.52758867 -0.8302222
000130 ec 5f a5 3f 4a 38 d4 bf 76 71 a7 be 00 52 a6 bf
       1.2919898 -1.6579678 -0.3270375 -1.2993774
000140 f1 2a 5f bf 18 1d 85 3f 8f 6c b7 3f 0a fd 82 bf
       -0.871749 1.0399504 1.4330004 -1.0233471
000150 88 60 6b 3f d2 ff c4 3f e2 a3 25 bf 37 ef d9 bd
       0.9194417 1.539057 -0.6470319 -0.1064133
000160 4a 36 83 bf d9 1b 21 3f ee 69 df bf 93 35 57 3f
       -1.0250943 0.6293312 -1.7454202 0.8406612
000170 b9 c6 b4 bf 76 b0 b7 bf e2 d5 c0 bf 8a 60 38 3f
       -1.4123145 -1.4350727 -1.5065272 0.72022307
000180 47 38 29 bf 55 c9 ba bf 64 0c a6 3f 2d c8 9c 3f
       -0.661015 -1.4592692 1.2972531 1.2248589
000190 78 6c 59 3e 5f fe 8a 3f b6 e3 90 3e fb 7d 93 3e
       0.21232784 1.0858878 0.2829873 0.28807053
0001a0 3a e2 bf bf 72 be 9c 3e f3 ad 8c bf a8 97 c5 3f
       -1.4990914 0.30614048 -1.0990585 1.5436907
0001b0 a1 12 db bf 9f ea 04 3f a8 b8 db 3e 14 c3 e4 bf
       -1.711506 0.51920503 0.4291432 -1.7872033
0001c0 44 f2 ad 3e 24 01 a6 3f 20 3a 3e bf b4 e0 2e bf
       0.33973897 1.2969098 -0.7430744 -0.6831162
0001d0 f0 f5 00 3e 65 e9 91 bf 32 a5 03 be 7e 99 6d bf
       0.12593818 -1.1399351 -0.12855986 -0.92812335
0001e0 8d 6e 93 bf a9 63 27 bf 56 2f 88 3f b8 6d 86 3e
       -1.1518112 -0.65386444 1.0639446 0.26255584
0001f0 06 1b 9c bd b8 89 83 3f fa 4f a6 bf f4 68 c3 bf
       -0.07622342 1.0276403 -1.2993157 -1.5266404
000200 00 30 88 bf d9 e5 24 bf 52 4f a4 3f 3f c8 cc bf
       -1.0639648 -0.6441322 1.2836707 -1.599861
000210 85 1e c3 bf e1 24 ba 3f 93 16 50 3f c6 e4 d2 3f
       -1.5243689 1.4542505 0.81284446 1.6476066
000220 1a 97 b3 bf 76 25 04 40 39 9e d4 3f b8 03 77 3f
       -1.4030488 2.0647864 1.6610786 0.9649005
000230 5d 77 9f 3f 66 b7 d8 bd 1f fc 76 bf 41 c7 23 3f
       1.2458302 -0.105818555 -0.96478456 0.6397591
000240 84 5c 89 3f ca 0d 8d bf d6 37 71 3f bb a4 29 3f
       1.0731359 -1.1019833 0.94225824 0.66266984
000250 56 a3 11 3e 70 b2 e5 bf e0 f3 04 c0 49 e0 47 3f
       0.14222464 -1.794508 -2.077385 0.78076607
000260 17 e2 b1 3f 8f 6a de bf f4 f8 d2 3d eb 22 5d be
       1.3897122 -1.7376269 0.1030139 -0.21595351
000270 52 a0 b5 3f 49 77 e6 bf 82 b0 ac 3e fe d8 38 be
       1.4189551 -1.8005153 0.33728415 -0.18051526
000280 8b 0c 6c 3f b6 bc 21 bf c2 8c eb 3e d3 ba 7d be
       0.9220664 -0.63178575 0.46005827 -0.24778299
000290 a9 e3 92 3e 3b 4d 88 3e 19 d1 1e bf a6 d1 8d 3f
       0.28689316 0.26621422 -0.6203781 1.1079605
0002a0 08 ca d4 bd ab e6 e4 3f 6c d4 9b 3f d7 fa 37 3f
       -0.10390097 1.7882894 1.2174201 0.71867126
0002b0 fe 21 88 3e d8 25 86 3e 89 e9 83 3e 8e 55 df bf
       0.26588434 0.26200747 0.2576411 -1.7447984
0002c0 53 d8 ec be 25 40 76 3f 35 28 49 bf 07 92 c5 3f
       -0.46258792 0.96191627 -0.78576976 1.5435189
0002d0 08 fb 44 3f cf a7 96 3f 15 24 72 3f 7a 09 07 bf
       0.76945543 1.1769961 0.94586307 -0.52748835
0002e0 45 30 a9 3b 12 3f bf 3f 20 46 83 3f c8 61 87 3f
       0.005163225 1.4941123 1.0255775 1.0576715
0002f0 6b 6b be 3e c1 f3 05 3f 0f 56 fb bf f7 a1 3d 3f
       0.37191328 0.52325064 -1.9635638 0.74075264
000300 38 9a 62 3f fb d2 e3 bf 40 7f b7 bf 7b 5e e8 3e
       0.8851657 -1.7798761 -1.4335709 0.45384583
000310 11 5c 24 bf 60 75 e8 bf 42 99 8f bf 15 fb ac 3e
       -0.6420298 -1.816082 -1.1218646 0.3378531

last_fc.bias f4 [10]
000000 5e 05 87 c0 55 78 88 40 60 38 d6 bf 14 72 6b bf
       -4.219405 4.264689 -1.6735954 -0.91970944
000010 1a cc dd 3f 22 70 4c 40 01 2e ed bf 2e e9 f7 3f
       1.7327912 3.194344 -1.8529664 1.9368036
000020 94 ed 1d c0 35 23 c2 3e
       -2.4676256 0.37917486
